Models_Convert_tf/SportsArea_tflite/SportsArea_lstm.tflite (tflite, 95704 bytes, 8 tensors)

arith.constant12 f4 [720]
00000000: 72ac da3d 8ec5 dd3d e5e0 e23d 8298 e53d
00000010: 6d2a ee3d 2497 f13d 7841 e33d 9826 dd3d
00000020: 6e4c e23d 5053 e93d 3536 f23d 1074 f03d
00000030: db82 e13d 1896 d43d 9177 d63d 4579 e13d
00000040: 2285 ee3d ec56 f13d 3c26 f23d 8bfc e83d
00000050: 43b2 ea3d fe21 ee3d 28c8 ef3d 448f e43d
00000060: e2ad da3d bc1c df3d 640c e83d d1a4 ef3d
00000070: 6ff6 f43d 1caa f03d bf24 e03d 4866 df3d
00000080: 0123 e83d b295 ef3d a6c3 f83d 8729 f23d
00000090: 2de6 e83d 5012 e03d a8f3 d53d 6ab9 db3d
000000a0: ae5b e63d 94ef ed3d 5a5d ea3d e2c6 e23d
000000b0: 3ce5 e03d e849 ea3d a4c2 ed3d 9dd7 ea3d
000000c0: 0b60 e43d e72e ea3d 5961 ed3d 2bfd f53d
000000d0: b712 f23d df03 ec3d 77b3 dd3d 8bb3 db3d
000000e0: cd58 e83d a09e f03d e3f3 ee3d d23a e83d
000000f0: 4b45 e13d 707e d93d a28d d73d b3e7 df3d
00000100: 62ec ea3d ccee ee3d 8358 eb3d 7b71 de3d
00000110: 4cbc e03d 0113 ec3d 34cf ec3d 6011 e13d
00000120: 6b20 dd3d 8661 e73d 23a3 e83d 6ab4 ec3d
00000130: e4b0 ef3d cbb4 eb3d c707 e53d 2de5 e13d
00000140: f09d df3d 98f4 e73d 9cc5 ed3d f679 ed3d
00000150: a31b e03d f173 d73d d764 d53d 589e da3d
00000160: b10a e53d 1513 ee3d 5411 ef3d cb7c e63d
00000170: d728 e83d f633 ef3d 35f2 f03d ef5a e83d
00000180: aabc dc3d 589d e53d d72d e73d 7ce3 ec3d
00000190: ecc7 ec3d 6de9 e63d c05e e63d 843a e03d
000001a0: 6a90 e23d d8db ed3d 3cfb f63d 9dbf f73d
000001b0: ee1d e83d d137 dd3d 2604 d33d b05d d63d
000001c0: c75c e73d d8c3 f33d 7558 ef3d 29f0 e63d
000001d0: 5314 e83d 16cd ed3d 62d9 f23d d7cd e93d
000001e0: 403a e03d 05a6 e53d a68b e93d d1f5 f13d
000001f0: f1df f63d fa09 ef3d 2fc3 e53d 2c76 e03d
00000200: dd57 e73d 2ee1 e93d 249a ee3d d1aa e83d
00000210: 53b4 db3d ad56 d93d d4bf d83d fdbe e63d
00000220: 537b f23d c8ca fa3d 16ab f53d 0891 ee3d
00000230: f530 f13d acce f23d 8731 ef3d 0b50 e33d
00000240: b72a dd3d 179e e43d 5a27 eb3d 62bf f03d
00000250: 3092 f53d 95db f03d 81ef e83d 53d5 e73d
00000260: 6549 e63d 06f2 eb3d f37a ee3d e014 eb3d
00000270: 260d e43d 1a4e d93d 0b7a d83d f67f e43d
00000280: a103 f63d 01dc fb3d f1d6 f93d e6cb ef3d
00000290: c0c2 f33d be23 f53d 3411 ee3d 849f e13d
000002a0: 26bd d93d 641e dd3d 89be e43d 6546 ed3d
000002b0: cfd1 f23d 837c f03d 7f23 df3d d347 dd3d
000002c0: ef8f eb3d 242b ef3d a763 f53d 0c02 f13d
000002d0: 57c3 df3d b50c d63d 44b9 d63d 2f55 df3d
000002e0: f970 ec3d 52f5 f63d 3df0 f23d f61a e63d
000002f0: 3cdd e63d 87a7 eb3d e708 ef3d bf7e e63d
00000300: 0801 dc3d 02b7 e23d 1f74 ed3d 4e34 fa3d
00000310: 2c79 fb3d febe f23d e243 e33d 3116 e13d
00000320: 9fcc ec3d edbc f33d 1792 f83d 9f5f ec3d
00000330: e0dd df3d 567c d33d d648 d13d 18e1 d83d
00000340: c1b6 ea3d 678e f13d b052 ef3d dfe4 e43d
00000350: 780e e53d 7cbe e63d 5aa8 e83d 38f6 ee3d
00000360: 4d8f ec3d 77bb f03d d15b f53d 2d9f f83d
00000370: 0678 fa3d f4e7 ed3d d993 e53d fe11 e33d
00000380: 3893 e93d 02a4 f23d 2bf2 f13d abf5 ea3d
00000390: 059d e33d 8bd3 de3d 2e42 db3d de3a da3d
000003a0: 9638 e73d fbe0 ee3d bf30 ed3d 0d39 e43d
000003b0: 29a5 e63d 8f41 eb3d f52c ec3d 6ddb ea3d
000003c0: d94e e93d 104f f13d 6d6e ef3d 11e8 ec3d
000003d0: 1649 ef3d 1f1e ec3d 340b e73d c07d e23d
000003e0: ca83 e73d 2b12 ef3d f74d f13d 303d f43d
000003f0: 91c8 e43d 8ee9 d83d 7487 d43d 3a6a da3d
0.106774226 0.10828696 0.110780515 0.11210729 0.11629186 0.11796406 0.110964715 0.10798377
0.11049734 0.11392844 0.118267454 0.11740887 0.11011287 0.103801906 0.10472024 0.110094585
0.11646487 0.11784157 0.11823699 0.11376294 0.11459782 0.11627577 0.11708099 0.11160138
0.10677697 0.108941525 0.11330488 0.11701358 0.11961066 0.11751196 0.10944509 0.109081805
0.113348015 0.11698474 0.12146692 0.11824327 0.113720275 0.10940993 0.10446864 0.10728724
0.11247955 0.116179615 0.11443587 0.1107309 0.10981223 0.11439878 0.116093904 0.11466906
0.11151131 0.11434727 0.11590833 0.120111786 0.11819976 0.11524176 0.10825246 0.107276045
0.113450624 0.11749005 0.116676114 0.11339344 0.10999545 0.10619819 0.10525061 0.10932865
0.11470868 0.11666641 0.11491492 0.108614884 0.10973415 0.11527062 0.11562958 0.10989642
0.10797199 0.11297898 0.11359241 0.11557849 0.11703661 0.11509093 0.11183124 0.1103004
0.10918796 0.113259494 0.116099566 0.11595528 0.10942771 0.10520161 0.10419624 0.10674733
0.1118368 0.11624733 0.11673227 0.11254271 0.113359146 0.11679833 0.11764947 0.11345469
0.10778172 0.112116516 0.1128804 0.11566827 0.115615696 0.11274991 0.11248541 0.10948661
0.11062701 0.116141975 0.12059638 0.12097094 0.11333834 0.10801662 0.103035256 0.10467088
0.11296993 0.119025886 0.11686794 0.11276276 0.113320015 0.11611383 0.11857869 0.11416214
0.1094861 0.11213306 0.11403589 0.11814464 0.12054432 0.11671825 0.11218869 0.109600395
0.112960555 0.11419903 0.11650494 0.11360706 0.107277535 0.10612235 0.10583463 0.11266897
0.118399285 0.12245709 0.11995523 0.11648756 0.11776916 0.11855826 0.116793685 0.11099251
0.10799163 0.11162966 0.11482115 0.117552534 0.11990774 0.11760632 0.11373807 0.11319985
0.11244468 0.11520772 0.116445445 0.11478591 0.1113532 0.106106 0.10570153 0.11157219
0.12012411 0.12297822 0.121992 0.117088124 0.1190238 0.11969708 0.11624375 0.11016753
0.1063178 0.10796812 0.11169154 0.11585692 0.11856424 0.11742499 0.10895442 0.10804715
0.115020625 0.1167815 0.11981898 0.117679685 0.1092593 0.104516424 0.10484555 0.10904919
0.11544985 0.1205851 0.11862228 0.11235611 0.11272666 0.11506563 0.1167162 0.11254644
0.10742384 0.11070062 0.11594414 0.122170076 0.12278971 0.11852835 0.11096932 0.10990561
0.11562466 0.11901269 0.121372394 0.11541676 0.10930991 0.103264496 0.102189705 0.10589808
0.11460639 0.11794739 0.11685693 0.11176466 0.111844 0.11266801 0.113602355 0.11668056
0.1155077 0.11754506 0.11980403 0.12139735 0.12229924 0.11616507 0.1120984 0.11087416
0.11405033 0.11847688 0.11813768 0.11472639 0.111139335 0.10880192 0.10705982 0.10655759
0.1129009 0.11664005 0.11581563 0.11143694 0.112619705 0.11487114 0.115320124 0.114676334
0.11391992 0.11782658 0.11690984 0.11567701 0.11683862 0.11529183 0.11281434 0.11059141
0.11304434 0.11673387 0.11782449 0.11925733 0.111710675 0.10591422 0.10377398 0.10664792

tfl.pseudo_qconst i1 [720, 32]
00000000: 0c36 f942 090a 1b12 0cac aa8a 69e8 1a18
00000010: e203 e800 78fb f808 0afc c738 7f18 e8ed
00000020: 1181 f639 2916 143f 14c7 bc96 52ed 1110
00000030: c50b e0fa 6d00 f40c fd00 054e 6920 f4e7
00000040: 0581 f70c fb09 0a18 e9fa e6e0 2100 00ff
00000050: e316 f1fe 38fe fa04 f702 0624 120a faf9
00000060: ff81 eef1 ac07 1cdd a112 e9eb 1e08 02f0
00000070: ea4c f5fd 4c18 fc02 f1fe 0826 fcff f304
00000080: f2e6 e6d9 9104 2cac d01b fbf8 0204 09e5
00000090: ef7f fefd 4561 ff01 f5f6 0a19 fcf0 f413
000000a0: e504 e3ea d307 10c2 341c fafe e402 04ef
000000b0: f57f fb00 2a69 0200 fa1a 0813 02f4 f714
000000c0: d3ff d503 0a08 d8d6 571d f603 d80a fcfb
000000d0: fd7f fa05 171e feff fb4b 080e 0002 f50a
000000e0: c4fe ce0f 1403 9cdc 2f1a f706 c718 f0fe
000000f0: 047f faf7 0ab1 fdf8 f82a 0704 f81e f3fb
12 54 -7 66 9 10 27 18
12 -84 -86 -118 105 -24 26 24
-30 3 -24 0 120 -5 -8 8
10 -4 -57 56 127 24 -24 -19
17 -127 -10 57 41 22 20 63
20 -57 -68 -106 82 -19 17 16
-59 11 -32 -6 109 0 -12 12
-3 0 5 78 105 32 -12 -25
5 -127 -9 12 -5 9 10 24
-23 -6 -26 -32 33 0 0 -1
-29 22 -15 -2 56 -2 -6 4
-9 2 6 36 18 10 -6 -7
-1 -127 -18 -15 -84 7 28 -35
-95 18 -23 -21 30 8 2 -16
-22 76 -11 -3 76 24 -4 2
-15 -2 8 38 -4 -1 -13 4
-14 -26 -26 -39 -111 4 44 -84
-48 27 -5 -8 2 4 9 -27
-17 127 -2 -3 69 97 -1 1
-11 -10 10 25 -4 -16 -12 19
-27 4 -29 -22 -45 7 16 -62
52 28 -6 -2 -28 2 4 -17
-11 127 -5 0 42 105 2 0
-6 26 8 19 2 -12 -9 20
-45 -1 -43 3 10 8 -40 -42
87 29 -10 3 -40 10 -4 -5
-3 127 -6 5 23 30 -2 -1
-5 75 8 14 0 2 -11 10
-60 -2 -50 15 20 3 -100 -36
47 26 -9 6 -57 24 -16 -2
4 127 -6 -9 10 -79 -3 -8
-8 42 7 4 -8 30 -13 -5

arith.constant18 f4 [256]
00000000: dac6 77bd f117 96bc e923 163d b2b5 ed3d
00000010: 5b9e ae3c 1676 9cbd 0761 353b 0a70 343d
00000020: ebb1 08bd a4df 03bd 7fda 26bd 000b d63c
00000030: b039 463d 53ba 9abc ade7 f5bc db37 25bd
00000040: ce06 ba3c 78e1 843b cca0 8b3d 669e 43bd
00000050: dcf1 84bd 84f6 1c3d c387 a63c 65a8 3ebd
00000060: c7f7 0a3c d25a f1bc 0938 abbc c1a3 87bc
00000070: 4df5 60bb aa51 e63c d2fd 9bbd 554a a93c
00000080: 390b 9c3d 4ce1 d8bc 932f 7ebd 6db4 c2bc
00000090: 47d2 403d f06d bc3c bb5c 893d da6d 273d
000000a0: f180 76bc 6b9c 38bd 4aab d83d 1b7b 623d
000000b0: ec78 64bd d024 883d c23c 6abd 447e 8a3b
000000c0: cf8f 46bd 96d2 00bd 8b14 0e3d 74d9 b4bb
000000d0: 483a 8ebd 4b57 49bd e398 4dbd 9521 363d
000000e0: f3f7 65bd 108d 61bd dbb2 a2bc 539c d93c
000000f0: 1d64 81bc 27f0 e63c 48cd 8d3b 14d4 023d
00000100: 3838 743f 6f07 7c3f f775 843f c7de 843f
00000110: a2bb 823f b420 793f 36ff 803f 021b 873f
00000120: fcbd 823f 0da2 763f 2fc6 803f 4a4a 883f
00000130: d5c8 7e3f 0968 833f 7f69 813f 6f92 7b3f
00000140: c07f 803f 8111 823f 0cb7 923f d7ec 7b3f
00000150: 680a 743f 4a09 883f 25ab 783f cf70 873f
00000160: e2bb 823f 0308 7f3f abef 803f 8181 823f
00000170: 0f0c 823f 0804 7d3f 8fe6 773f 68b4 7b3f
00000180: 4025 833f e509 873f 8144 793f fa08 813f
00000190: acee 813f 9a3a 8b3f db2c 853f f940 843f
000001a0: a832 833f ae77 7c3f ca6c 823f ed90 873f
000001b0: 9b53 793f 1529 833f a399 9e3f 45f7 833f
000001c0: f6a5 803f 2528 813f fced 7d3f ef42 833f
000001d0: bdde 6b3f 76df 793f c740 793f e297 7f3f
000001e0: 1831 773f dd7e 7c3f 2bee 803f 6866 803f
000001f0: 7729 803f 813f 823f c1ff 833f 9d1a 863f
00000200: a2cf 3cbc 7f29 58bc 3685 703c 9885 9d3c
00000210: 278d c9bc 3e0f 133c 6172 21bc 8be8 5f3c
00000220: 7f36 dd3c ec8d 303d e8d8 a93c e009 1dbd
00000230: 1f50 543c 848a 14bd 5326 e8bc aed8 0b3d
00000240: 82df a9bd f115 b8bb 3d21 97bc 494c 5abc
00000250: 9422 75bd ebf7 ae3c 3aed 503c 6bff 0cbd
00000260: 1770 7dbb e94b ecbc e477 5cbd be7b 693c
00000270: a410 6d3c f59e 83bc 32a4 f3ba 414c 8abb
00000280: 6379 9dbc b654 2fbd cd71 893b 5d9b cb3c
00000290: 253e 1a3c a874 2bba bd4b c0bb 8f08 e0bc
000002a0: 40a6 3fbd eebc 7ebd a6d6 1b3d 3671 4ebc
000002b0: 7627 26bc e93c acbc 52fa 98bc 56f3 c63c
000002c0: de13 0fbd e5b3 f0bc 71fa 3f3c d128 35bd
000002d0: 10ea 4dbc 62aa 31bc eaeb e83b 0297 273c
000002e0: 336f e53c 5dc9 8bbd bf84 9fbd 7565 353d
000002f0: 3211 3e3a 8f01 8dbd ad61 55bc dd92 44bd
00000300: 2985 11bd 21e6 25bd 112a 1d3d b441 b93d
00000310: 9ef9 2a3c 1124 4bbd bc56 00bc 820e 8b3c
00000320: 6034 01bd d5d1 cbbc 5154 8ebd 5d08 093c
00000330: 9a33 ff3b c0ca fbbc 9a42 8bbc 60ac 7cbd
00000340: ea1e d03c 808f d0bb 5759 013d 3b2f 60bd
00000350: 01cb 98bd 166d 143c 3cd1 e13c b516 27bd
00000360: 4cef a73b 1703 09bc febd 1fbb 4505 cdbd
00000370: 40cd 8dba 746a 02bb 1a14 81bd 90c5 16bc
00000380: 30d6 fc3c 169c 4abd 67d8 18bd db81 1ebd
00000390: d842 053d a61e 423c b70e 013d 8ccc 1f3d
000003a0: 97ab 30bc 823f 53bd f50f f63d 03a8 433c
000003b0: 2105 37bd efe0 a2bc 2d29 0fbd 7db2 9eba
000003c0: de6a 9cbd 4b3d f4bb a0b9 cc3c 269c fabc
000003d0: 2e95 a3bd 4995 f8bc 3ffa 75bd 1e15 243d
000003e0: a411 adbd 2a3a 6dbd bf17 60bc 75d5 1f3d
000003f0: e38a 67bd a5db 43bc a1b4 a6ba 3e45 773d
-0.060492374 -0.018321963 0.03665534 0.11606921 0.021315744 -0.076397106 0.002767624 0.04405216
-0.0333728 -0.032195702 -0.040735718 0.026128292 0.04839486 -0.018887674 -0.030017698 -0.04033647
0.022708323 0.0040551983 0.06817779 -0.047758482 -0.064914435 0.038321033 0.020328408 -0.046547312
0.008481926 -0.029462252 -0.020900743 -0.016557576 -0.0034325898 0.028115112 -0.07616772 0.020665327
0.07619328 -0.026474617 -0.06205709 -0.023767674 0.047075536 0.023001641 0.0670714 0.040876247
-0.01504539 -0.045071047 0.10579546 0.055293184 -0.055779383 0.066476464 -0.05718685 0.004226478
-0.04847699 -0.03145083 0.03468756 -0.0055190865 -0.0694471 -0.049155515 -0.050194632 0.04446562
-0.056144666 -0.05506617 -0.019860676 0.026563799 -0.015794808 0.028190685 0.00432745 0.031940535
0.95398283 0.9844884 1.03485 1.0380486 1.0213511 0.97315526 1.0077884 1.0555117
1.0214229 0.9634102 1.0060481 1.0647671 0.99525195 1.0266124 1.011032 0.98270315
1.0038986 1.0161592 1.1462111 0.98408264 0.9532838 1.0627835 0.97136146 1.0581301
1.0213587 0.996216 1.0073141 1.0195771 1.015993 0.98834276 0.9683618 0.98322153
1.0245743 1.0549895 0.97370154 1.0080864 1.0150962 1.0877259 1.0404314 1.0332328
1.0249834 0.98620117 1.018945 1.0591103 0.97393197 1.0246912 1.2390636 1.0309836
1.0050647 1.0090376 0.9919126 1.0254802 0.92136747 0.976066 0.9736447 0.9984113
0.96559286 0.9863108 1.0072683 1.0031252 1.0012654 1.017563 1.0312425 1.0476872
-0.011524113 -0.013193487 0.014680197 0.019228742 -0.02460344 0.008975802 -0.00985393 0.013666282
0.027003525 0.043104097 0.020733312 -0.038339496 0.0129585555 -0.03626491 -0.028338587 0.03414219
-0.08294584 -0.00561785 -0.018448466 -0.013323852 -0.05984743 0.02135845 0.012751872 -0.034423273
-0.0038671547 -0.02884479 -0.053825274 0.014250694 0.014469299 -0.016067008 -0.0018588363 -0.004220516
-0.01922292 -0.042805396 0.0041944743 0.024854356 0.0094142305 -0.00065405155 -0.0058684037 -0.027347831
-0.046789408 -0.062191896 0.0380465 -0.012600234 -0.010141244 -0.021025138 -0.01867405 0.024285953
-0.034931056 -0.029382655 0.011717425 -0.04422838 -0.012568012 -0.010843845 0.0071082013 0.010228874
0.028007125 -0.068255164 -0.07788991 0.04428621 0.0007250487 -0.06885063 -0.013023776 -0.047991622
-0.035527382 -0.04050267 0.038370196 0.09045735 0.01043549 -0.049594942 -0.007833179 0.016974691
-0.03154409 -0.02488033 -0.06949676 0.00836381 0.007788134 -0.030736327 -0.016999532 -0.061687827
0.025405366 -0.006364763 0.03157934 -0.054732542 -0.07460595 0.009059211 0.027565591 -0.04079314
0.005124962 -0.008362553 -0.0024374719 -0.10010771 -0.0010818616 -0.0019899877 -0.06302662 -0.009202376
0.030863851 -0.04946526 -0.037315752 -0.03869806 0.03253445 0.0118481275 0.031508174 0.03901343
-0.010783098 -0.051574238 0.12014762 0.011941913 -0.044682626 -0.019882647 -0.034951378 -0.0012107637
-0.07637571 -0.0074535958 0.024990857 -0.030592036 -0.07987438 -0.030344622 -0.060053106 0.0400592
-0.0845063 -0.057916798 -0.0136775365 0.039021928 -0.056528937 -0.011954223 -0.0012718627 0.06036877

tfl.pseudo_qconst1 i1 [256, 7]
00000000: 7ff9 d875 dd1e 3bcc 56b6 7fe5 2ec4 f7f2
00000010: 4f41 8106 4259 fd41 780d 7f72 cd32 c5cc
00000020: 8105 59ea 8185 974a cc12 dfeb 46d3 87ef
00000030: 7f7f daaf 08f3 7c30 5101 8195 4440 95b0
00000040: f6b4 7fdf f012 adab f2d5 81c5 0d7f 2a73
00000050: 36c6 d74c f494 677f cd45 e8e4 c716 4d83
00000060: 2381 0f69 487f 3cb3 ebf3 33e0 f87f 54a6
00000070: 9cc8 0d7f fad7 15a2 68b1 e217 c47f 32f1
00000080: e8e3 7f30 f381 caff 3095 8a05 cd01 7f46
00000090: b700 7c8f 3d54 e581 0a3a 9e7f d5b7 0d1d
000000a0: 0f76 3981 080c dbfd 287a 7c45 2681 53b0
000000b0: 81d0 2521 fe34 c80e c47f 7757 d113 6bfa
000000c0: 7f83 ee3b e627 8122 25e6 9f8b 3333 3b7f
000000d0: 1ad4 8bc8 b4dc 39ba 8166 8132 471e 4dcd
000000e0: e116 4f78 7f21 2076 64c8 507f 1218 1981
000000f0: c04d 9435 e6b9 c8c4 497f 780c 1241 0372
127 -7 -40 117 -35 30 59 -52
86 -74 127 -27 46 -60 -9 -14
79 65 -127 6 66 89 -3 65
120 13 127 114 -51 50 -59 -52
-127 5 89 -22 -127 -123 -105 74
-52 18 -33 -21 70 -45 -121 -17
127 127 -38 -81 8 -13 124 48
81 1 -127 -107 68 64 -107 -80
-10 -76 127 -33 -16 18 -83 -85
-14 -43 -127 -59 13 127 42 115
54 -58 -41 76 -12 -108 103 127
-51 69 -24 -28 -57 22 77 -125
35 -127 15 105 72 127 60 -77
-21 -13 51 -32 -8 127 84 -90
-100 -56 13 127 -6 -41 21 -94
104 -79 -30 23 -60 127 50 -15
-24 -29 127 48 -13 -127 -54 -1
48 -107 -118 5 -51 1 127 70
-73 0 124 -113 61 84 -27 -127
10 58 -98 127 -43 -73 13 29
15 118 57 -127 8 12 -37 -3
40 122 124 69 38 -127 83 -80
-127 -48 37 33 -2 52 -56 14
-60 127 119 87 -47 19 107 -6
127 -125 -18 59 -26 39 -127 34
37 -26 -97 -117 51 51 59 127
26 -44 -117 -56 -76 -36 57 -70
-127 102 -127 50 71 30 77 -51
-31 22 79 120 127 33 32 118
100 -56 80 127 18 24 25 -127
-64 77 -108 53 -26 -71 -56 -60
73 127 120 12 18 65 3 114

tfl.pseudo_qconst2 i1 [256, 64]
00000000: 5da2 8f9e e90e 18c9 3f4d 0b1d 7957 1703
00000010: ad13 d0d7 1f0d 4133 4def c6a2 37fb 26c9
00000020: 43ca f1fc dead 1f2b 25c0 d2a1 0acc 457f
00000030: 44c5 09e7 2831 4236 20bc e4d6 d90b 2aa0
00000040: c61a 41e5 0522 dc50 eb06 cddc ae14 10cc
00000050: 55ca ba2d fea3 d081 f926 feef dcd7 2a15
00000060: ee49 f01a 0bd3 b481 1cdc 1f25 de34 19c4
00000070: ad7d 352d dbea fbf6 fd03 0c81 be34 0c26
00000080: fcd4 355c c9ef c057 f3d3 4bf1 d111 0d36
00000090: f640 2420 d81b 283c 199c eadf 1be7 fefc
000000a0: 1ce2 e360 2dc8 d289 8120 b918 fb34 b209
000000b0: e609 2641 0717 0507 0321 4116 0636 3b3e
000000c0: 4e12 1f14 cb2e d19e d6dd b14a 02af 31f0
000000d0: 6306 4630 30cf f644 762b 3081 2dc1 061c
000000e0: ea15 46f4 25df f4cc 252e f5ad f32b 1889
000000f0: f153 f6c2 fb26 9390 efe4 23c8 9918 3d01
93 -94 -113 -98 -23 14 24 -55
63 77 11 29 121 87 23 3
-83 19 -48 -41 31 13 65 51
77 -17 -58 -94 55 -5 38 -55
67 -54 -15 -4 -34 -83 31 43
37 -64 -46 -95 10 -52 69 127
68 -59 9 -25 40 49 66 54
32 -68 -28 -42 -39 11 42 -96
-58 26 65 -27 5 34 -36 80
-21 6 -51 -36 -82 20 16 -52
85 -54 -70 45 -2 -93 -48 -127
-7 38 -2 -17 -36 -41 42 21
-18 73 -16 26 11 -45 -76 -127
28 -36 31 37 -34 52 25 -60
-83 125 53 45 -37 -22 -5 -10
-3 3 12 -127 -66 52 12 38
-4 -44 53 92 -55 -17 -64 87
-13 -45 75 -15 -47 17 13 54
-10 64 36 32 -40 27 40 60
25 -100 -22 -33 27 -25 -2 -4
28 -30 -29 96 45 -56 -46 -119
-127 32 -71 24 -5 52 -78 9
-26 9 38 65 7 23 5 7
3 33 65 22 6 54 59 62
78 18 31 20 -53 46 -47 -98
-42 -35 -79 74 2 -81 49 -16
99 6 70 48 48 -49 -10 68
118 43 48 -127 45 -63 6 28
-22 21 70 -12 37 -33 -12 -52
37 46 -11 -83 -13 43 24 -119
-15 83 -10 -62 -5 38 -109 -112
-17 -28 35 -56 -103 24 61 1

arith.constant22 f4 [128]
00000000: 731e 60bd 1fbc 59bd dc66 90bd b0fc babd
00000010: e7b2 c9bd 82c8 a3bd aa5e bfbd 8d15 ccbd
00000020: 4383 0bbe 187d c5bd c5c9 a3bd 9900 23bd
00000030: ef1e 14bd a520 e6bd 2700 51bc af56 54bd
00000040: d0b2 a83a 6d97 1cbe fe9a 81be 80f1 edbd
00000050: b1b3 f4bc 83db 20be 3892 e6bd d93d 61bc
00000060: 253c f23d becb 77bb 88a5 e8bd 12b4 2fbd
00000070: cf42 70bb 3eb0 18be d69c 4cbd 084d 5bbd
00000080: ce73 6a3f bb2a 583f 0b8f 7d3f dd16 773f
00000090: 43f0 5d3f 066b 7f3f a03c 823f 747c 813f
000000a0: 79c8 5d3f 9f65 633f b785 823f 214a 863f
000000b0: b607 783f 1de4 693f 7899 793f f4ee 7d3f
000000c0: 1a7b 7c3f 60bd 893f aeed 543f 23fc 683f
000000d0: f5c5 8d3f bc5f 623f bae2 753f 183d 653f
000000e0: 3947 703f 9149 6f3f 77b9 5f3f 636e 7b3f
000000f0: cde7 633f 00cb 753f fd73 683f a7d7 933f
00000100: a2bc 953d 7e19 c1bc 39b2 c33c 1827 df3c
00000110: a7cc f33c e5d7 9f3c 8e4a 5ebc 90c1 3bbc
00000120: 617c 6e3d 52fc cf3c 806e b2bc 9573 72bc
00000130: 0ded 68bb ccfa e73a 50e9 afbc 51aa 5bba
00000140: c023 52bd 13b5 ebbc 77c2 00bd 8f89 c2bd
00000150: 4083 6c3b efa9 47bd 02b1 763d 5962 4b3c
00000160: 93e8 a73d 0c56 5d3d a1dd 12bd 636a 793c
00000170: 3a1e 103d 5ef6 81bd d97f c2ba 69d6 d6bc
00000180: a0b8 b1bd 42e2 4ebe 7631 8dbe a348 a5bc
00000190: 31fb 2dbe 4780 38bd dd03 10bd c82a fcbd
000001a0: 5b88 b6be f75e dabd d1f2 673b bc2c 223d
000001b0: e179 1b3d dba7 99bd a6f2 203b a880 4d39
000001c0: a35e 49be 6879 e2bd 84ca 36be 7fae 9ebe
000001d0: b35a 1abd b892 b2be 2d6e d3bd 1e4b e5bd
000001e0: 60aa a8be 9167 46be 643a 29be 185e 043d
000001f0: 66b9 f8bd fc53 9ebd 2785 5d3c 41a6 733d
-0.05471654 -0.053157922 -0.07050869 -0.091302276 -0.09848576 -0.07997228 -0.093442276 -0.09965048
-0.13624291 -0.09643 -0.07997469 -0.03979549 -0.036162313 -0.11236695 -0.012756384 -0.05184048
0.0012870673 -0.1529214 -0.25313562 -0.11618328 -0.02987084 -0.15708737 -0.11258358 -0.013747656
0.11827878 -0.0037810649 -0.113596976 -0.042896338 -0.0036660915 -0.14910981 -0.049954258 -0.05354026
0.91582954 0.844402 0.9904639 0.9651926 0.86694735 0.9977268 1.0174751 1.0116105
0.8663402 0.88826936 1.0197057 1.0491372 0.96886766 0.913637 0.974998 0.9919274
0.9862534 1.0760918 0.8317517 0.9100973 1.1076037 0.8842733 0.9604908 0.89546347
0.9385868 0.9347163 0.8739237 0.9821531 0.89025575 0.9601288 0.90801984 1.1550187
0.073113695 -0.023571726 0.023888694 0.027240321 0.029760672 0.019512126 -0.01356758 -0.011459723
0.058224086 0.02538887 -0.021781206 -0.014798065 -0.0035541684 0.0017698645 -0.021473557 -0.0008379566
-0.051303625 -0.028772866 -0.031435456 -0.094988935 0.0036088973 -0.048746046 0.0602274 0.012413585
0.08198657 0.05403714 -0.035855893 0.0152231185 0.035185076 -0.06345819 -0.0014839127 -0.026225286
-0.086777925 -0.20203498 -0.27576798 -0.020176237 -0.16990353 -0.04504421 -0.035159934 -0.123128474
-0.35650906 -0.10662644 0.0035392533 0.039593443 0.03795803 -0.07502719 0.0024558692 0.00019598252
-0.19665007 -0.11058313 -0.17850691 -0.30992505 -0.037684154 -0.34877563 -0.10323749 -0.11195968
-0.32942486 -0.19375445 -0.1652618 0.032316297 -0.12144737 -0.077308625 0.0135205155 0.059484724

tfl.pseudo_qconst3 i1 [128, 64]
00000000: df1a c4f2 1c1c 05ab d1e6 161c f54f 0b05
00000010: 35d9 0f0b 1abe b451 01df 0d15 2621 a822
00000020: 49c2 37eb b7d2 d764 1d04 0aea 2e7f b5c6
00000030: 0727 f306 e0f1 d534 1307 3810 cbd8 faee
00000040: c5f7 81e6 00f9 a82b bae5 109d fe02 f841
00000050: 85f1 e3b6 b037 f717 38a3 d036 fa0c 1c33
00000060: f3d2 de5a 34f5 3de2 08d8 fcb2 b5e7 013b
00000070: 08af 27c8 02db 3cbd 2c0c d806 dff8 e6a3
00000080: 457f f5d4 0919 43ba 1b2c 19e5 4916 b3fb
00000090: 1bfd a5e6 f619 ddff f9a3 4413 eb40 170f
000000a0: 2de8 abfd f1eb 4c14 22d4 e3fe ebef 041f
000000b0: c52e 8c08 10c8 d6ce 250b 2a4a 1af9 ebb8
000000c0: fbe9 f2a3 1dc0 1bd0 e6dd 0b37 e8f5 fb20
000000d0: bb2c d815 ddf2 0e4f 7fc0 a507 4916 b3ef
000000e0: 02d6 062b d3e9 f54f 2ce9 1517 17e9 fb02
000000f0: 24e3 d612 cdcd 3f75 1c3b c4c6 1836 f617
-33 26 -60 -14 28 28 5 -85
-47 -26 22 28 -11 79 11 5
53 -39 15 11 26 -66 -76 81
1 -33 13 21 38 33 -88 34
73 -62 55 -21 -73 -46 -41 100
29 4 10 -22 46 127 -75 -58
7 39 -13 6 -32 -15 -43 52
19 7 56 16 -53 -40 -6 -18
-59 -9 -127 -26 0 -7 -88 43
-70 -27 16 -99 -2 2 -8 65
-123 -15 -29 -74 -80 55 -9 23
56 -93 -48 54 -6 12 28 51
-13 -46 -34 90 52 -11 61 -30
8 -40 -4 -78 -75 -25 1 59
8 -81 39 -56 2 -37 60 -67
44 12 -40 6 -33 -8 -26 -93
69 127 -11 -44 9 25 67 -70
27 44 25 -27 73 22 -77 -5
27 -3 -91 -26 -10 25 -35 -1
-7 -93 68 19 -21 64 23 15
45 -24 -85 -3 -15 -21 76 20
34 -44 -29 -2 -21 -17 4 31
-59 46 -116 8 16 -56 -42 -50
37 11 42 74 26 -7 -21 -72
-5 -23 -14 -93 29 -64 27 -48
-26 -35 11 55 -24 -11 -5 32
-69 44 -40 21 -35 -14 14 79
127 -64 -91 7 73 22 -77 -17
2 -42 6 43 -45 -23 -11 79
44 -23 21 23 23 -23 -5 2
36 -29 -42 18 -51 -51 63 117
28 59 -60 -58 24 54 -10 23

tfl.pseudo_qconst4 i1 [128, 32]
00000000: 7ffb 3c22 26a8 20e7 e1c9 ef12 5b59 e908
00000010: 320b c109 f628 dcab 043a 07c1 3b5a e4e5
00000020: d2c1 8b2f 525c aa52 cb1d f8c9 3c2f 15d7
00000030: da10 fec4 7f25 e856 c1e4 aa4a 412e e656
00000040: 8b08 2a1b 0f0c 11ca 280e c0e5 c6ed 2753
00000050: 4457 2cf0 3381 0607 1dd7 370e f638 b1e2
00000060: 09f2 cbf6 30c3 4cc5 5112 f1d4 170f fed9
00000070: fcda de07 81df f71d cac2 16d9 c8cb 4133
00000080: ffd6 fc22 f87f 2ef3 1266 35ea f5d9 01fb
00000090: f1d4 19f3 070e 4219 0b2f fa2e ede3 02e6
000000a0: d70f 585d 01be d923 e8dd f329 1881 d608
000000b0: fd16 0e12 0c04 f016 f3e4 cb0f dfc8 21e8
000000c0: ccda 1d2b eee0 c6f2 d5e8 f66a 09ff 30ee
000000d0: ee81 61f1 9f72 32ee 8adf dcdc edde 0901
000000e0: 0c9e 23e6 02f0 227f 9b0e 08df 3907 0019
000000f0: a0e2 efe9 27f5 dd47 1e0e f022 240d 1711
127 -5 60 34 38 -88 32 -25
-31 -55 -17 18 91 89 -23 8
50 11 -63 9 -10 40 -36 -85
4 58 7 -63 59 90 -28 -27
-46 -63 -117 47 82 92 -86 82
-53 29 -8 -55 60 47 21 -41
-38 16 -2 -60 127 37 -24 86
-63 -28 -86 74 65 46 -26 86
-117 8 42 27 15 12 17 -54
40 14 -64 -27 -58 -19 39 83
68 87 44 -16 51 -127 6 7
29 -41 55 14 -10 56 -79 -30
9 -14 -53 -10 48 -61 76 -59
81 18 -15 -44 23 15 -2 -39
-4 -38 -34 7 -127 -33 -9 29
-54 -62 22 -39 -56 -53 65 51
-1 -42 -4 34 -8 127 46 -13
18 102 53 -22 -11 -39 1 -5
-15 -44 25 -13 7 14 66 25
11 47 -6 46 -19 -29 2 -26
-41 15 88 93 1 -66 -39 35
-24 -35 -13 41 24 -127 -42 8
-3 22 14 18 12 4 -16 22
-13 -28 -53 15 -33 -56 33 -24
-52 -38 29 43 -18 -32 -58 -14
-43 -24 -10 106 9 -1 48 -18
-18 -127 97 -15 -97 114 50 -18
-118 -33 -36 -36 -19 -34 9 1
12 -98 35 -26 2 -16 34 127
-101 14 8 -33 57 7 0 25
-96 -30 -17 -23 39 -11 -35 71
30 14 -16 34 36 13 23 17
