Models_Convert_tf/SchoolP_tflite/SchoolP_lstm.tflite (tflite, 130608 bytes, 8 tensors)

arith.constant13 f4 [1440]
0	0x3e7a5cb0	0.2444942
1	0x3e4af676	0.1982058
2	0x3e7da7a4	0.24770981
3	0x3e4bbb73	0.19895725
4	0x3e823f3a	0.25438863
5	0x3e4d7289	0.20063223
6	0x3e83bb46	0.25728816
7	0x3e4d33f6	0.20039353
8	0x3e83d968	0.25751805
9	0x3e4c8e88	0.19976246
10	0x3e836c98	0.25668788
11	0x3e4e83a4	0.20167404
12	0x3e82abf5	0.25521818
13	0x3e4e2cc5	0.20134266
14	0x3e824e50	0.25450373
15	0x3e4dc011	0.20092799
16	0x3e821ad9	0.25411108
17	0x3e4db341	0.20087911
18	0x3e822dac	0.2542547
19	0x3e4dff59	0.20116939
20	0x3e81215a	0.25220758
21	0x3e502feb	0.20330779
22	0x3e815da9	0.2526677
23	0x3e50658f	0.20351242
24	0x3e83186a	0.25604564
25	0x3e527f3b	0.20556347
26	0x3e853658	0.26018023
27	0x3e526b6c	0.2054879
28	0x3e86c661	0.26323226
29	0x3e510e08	0.20415509
30	0x3e86a022	0.26294047
31	0x3e508349	0.20362581
32	0x3e854f89	0.26037243
33	0x3e4f6365	0.2025276
34	0x3e83f965	0.2577621
35	0x3e4f2ecb	0.20232694
36	0x3e828af5	0.2549664
37	0x3e4e5d33	0.2015274
38	0x3e807a15	0.2509314
39	0x3e4d1597	0.20027767
40	0x3e7bb730	0.24581599
41	0x3e4bc51c	0.1989941
42	0x3e7af798	0.24508512
43	0x3e4b0b29	0.19828476
44	0x3e781ff6	0.24230942
45	0x3e4c75ae	0.19966766
46	0x3e78cee6	0.24297675
47	0x3e4d74c6	0.20064077
48	0x3e7cd574	0.24690801
49	0x3e4ea77e	0.2018108
50	0x3e80405b	0.250491
51	0x3e4fcc38	0.20292747
52	0x3e8311c1	0.25599483
53	0x3e4ed2c2	0.20197585
54	0x3e8382f1	0.25685838
55	0x3e4fb939	0.202855
56	0x3e83804f	0.2568383
57	0x3e4f339a	0.20234528
58	0x3e837b8e	0.25680202
59	0x3e4fd8cd	0.20297547
60	0x3e835c8f	0.25656554
61	0x3e4dcb90	0.20097184
62	0x3e827bd1	0.2548509
63	0x3e4b8345	0.19874294
64	0x3e821845	0.2540914
65	0x3e4bd736	0.19906315
66	0x3e81fdb6	0.2538888
67	0x3e4b66cd	0.19863434
68	0x3e812a63	0.2522765
69	0x3e4b6688	0.19863331
70	0x3e811611	0.25212148
71	0x3e4adeae	0.19811508
72	0x3e824171	0.25440553
73	0x3e4c5bbd	0.1995687
74	0x3e8378db	0.25678143
75	0x3e4c7080	0.1996479
76	0x3e84afc6	0.25915354
77	0x3e4d215e	0.2003226
78	0x3e84f11c	0.25965202
79	0x3e4ca8ff	0.19986342
80	0x3e83d363	0.25747213
81	0x3e4a840d	0.19776936
82	0x3e824ce7	0.25449297
83	0x3e49e298	0.19715345
84	0x3e80e73c	0.25176418
85	0x3e48c1c5	0.19605167
86	0x3e7f0718	0.2490505
87	0x3e47eddb	0.19524328
88	0x3e7a927a	0.24469939
89	0x3e46651a	0.19374505
90	0x3e794aa9	0.24344887
91	0x3e45c796	0.19314417
92	0x3e7572c6	0.23969564
93	0x3e48c2aa	0.19605508
94	0x3e745232	0.2385948
95	0x3e4b5b13	0.19858961
96	0x3e7779d9	0.24167575
97	0x3e4db305	0.20087822
98	0x3e7b9054	0.24566776
99	0x3e502476	0.20326409
100	0x3e80c73e	0.2515201
101	0x3e519490	0.20466828
102	0x3e8167d8	0.2527454
103	0x3e52e1c2	0.20593932
104	0x3e813aff	0.25240323
105	0x3e522e76	0.20525536
106	0x3e8143fc	0.2524718
107	0x3e529022	0.20562795
108	0x3e817197	0.25281975
109	0x3e50e34b	0.20399205
110	0x3e80f6de	0.25188345
111	0x3e4f6a6d	0.20255442
112	0x3e80b8db	0.25141034
113	0x3e4f0bf2	0.202194
114	0x3e810b35	0.25203863
115	0x3e4e6dbc	0.20159048
116	0x3e801210	0.2501378
117	0x3e4e700a	0.20159927
118	0x3e7f5dd5	0.24938138
119	0x3e4f1a09	0.20224775
120	0x3e8059ce	0.25068516
121	0x3e518aa4	0.20463043
122	0x3e81e257	0.25367996
123	0x3e51180e	0.20419332
124	0x3e833a7e	0.25630563
125	0x3e504eb4	0.20342523
126	0x3e8342fb	0.2563704
127	0x3e4ef9a9	0.20212425
128	0x3e81e5bd	0.2537059
129	0x3e4dbf91	0.20092608
130	0x3e807450	0.2508874
131	0x3e4e46f7	0.20144258
132	0x3e7ed176	0.2488459
133	0x3e4c9a0c	0.19980639
134	0x3e7c262e	0.2462394
135	0x3e4ac1c9	0.19800486
136	0x3e77ed1e	0.24211547
137	0x3e48a696	0.19594797
138	0x3e77ff84	0.24218565
139	0x3e473557	0.19453941
140	0x3e757d0f	0.23973487
141	0x3e49a5b5	0.19692118
142	0x3e74c5c4	0.23903567
143	0x3e4a7756	0.19772086
144	0x3e779209	0.24176802
145	0x3e4b63c8	0.19862282
146	0x3e7bb945	0.24582393
147	0x3e4ca51f	0.19984864
148	0x3e81e892	0.2537275
149	0x3e4ec07d	0.20190616
150	0x3e83c408	0.25735497
151	0x3e4ec572	0.20192507
152	0x3e846b17	0.25862953
153	0x3e4ec75a	0.20193234
154	0x3e843116	0.258187
155	0x3e515ceb	0.20445602
156	0x3e8321e6	0.256118
157	0x3e5013cc	0.20320052
158	0x3e8183ac	0.2529577
159	0x3e4f2e5e	0.20232531
160	0x3e80793f	0.25092503
161	0x3e4f7aea	0.20261732
162	0x3e805aef	0.25069377
163	0x3e4e1768	0.20126116
164	0x3e7f85d4	0.24953395
165	0x3e4e67c9	0.20156778
166	0x3e7fa2a1	0.24964382
167	0x3e4f96c9	0.20272364
168	0x3e812319	0.2522209
169	0x3e529306	0.20563897
170	0x3e82e92a	0.25568515
171	0x3e533dd8	0.2062906
172	0x3e843871	0.2582431
173	0x3e52ce29	0.20586456
174	0x3e84772a	0.25872165
175	0x3e521639	0.2051629
176	0x3e839c96	0.25705403
177	0x3e4fbf04	0.2028771
178	0x3e828296	0.25490254
179	0x3e4f943e	0.20271394
180	0x3e81f338	0.25380874
181	0x3e4d27da	0.20034733
182	0x3e8099fb	0.25117478
183	0x3e4c07e8	0.19924891
184	0x3e7cf0b7	0.247012
185	0x3e4a7aa9	0.19773354
186	0x3e7af09b	0.24505846
187	0x3e491175	0.19635566
188	0x3e76d597	0.24104916
189	0x3e4b80b2	0.19873312
190	0x3e744c6f	0.23857282
191	0x3e4cf4c9	0.20015253
192	0x3e753a00	0.23947906
193	0x3e4dba06	0.20090494
194	0x3e778927	0.24173413
195	0x3e4cb124	0.19989449
196	0x3e7cdfc8	0.24694741
197	0x3e4c1e2f	0.19933389
198	0x3e7f819d	0.24951787
199	0x3e4b02d6	0.198253
200	0x3e802491	0.25027898
201	0x3e49f6d7	0.19723068
202	0x3e7ffbc2	0.24998382
203	0x3e4b5965	0.1985832
204	0x3e7f07eb	0.24905364
205	0x3e49ade8	0.19695246
206	0x3e7ddc2a	0.24791017
207	0x3e475f50	0.19469953
208	0x3e7da0e3	0.24768405
209	0x3e48aa29	0.19596161
210	0x3e7e7280	0.24848366
211	0x3e4821a4	0.19544083
212	0x3e7d96a5	0.24764498
213	0x3e49535e	0.19660708
214	0x3e7e6a53	0.24845247
215	0x3e4a2dba	0.19744006
216	0x3e809af9	0.25118235
217	0x3e4cd336	0.20002446
218	0x3e824b6e	0.25448173
219	0x3e4dde5b	0.20104353
220	0x3e83b360	0.2572279
221	0x3e4ecca3	0.2019525
222	0x3e844d42	0.25840193
223	0x3e4f756f	0.20259641
224	0x3e83d7c0	0.25750542
225	0x3e4f0c54	0.20219547
226	0x3e83235c	0.25612915
227	0x3e4ec4fd	0.20192333
228	0x3e818d61	0.25303176
229	0x3e4d0d3b	0.20024578
230	0x3e7f4fd3	0.24932794
231	0x3e4c4fef	0.19952367
232	0x3e7aa190	0.24475694
233	0x3e4a0dff	0.19731902
234	0x3e7a91c8	0.24469674
235	0x3e48f2a7	0.19623815
236	0x3e790780	0.24319267
237	0x3e4a9c5f	0.19786213
238	0x3e7805ee	0.24221012
239	0x3e4b5979	0.1985835
240	0x3e7a2d85	0.24431427
241	0x3e4c4546	0.199483
242	0x3e7d7c80	0.24754524
243	0x3e4bd29f	0.19904564
244	0x3e81eeca	0.25377494
245	0x3e4bfdb1	0.19920994
246	0x3e82a35f	0.25515267
247	0x3e4b3cd2	0.1984742
248	0x3e82053e	0.25394624
249	0x3e4a9025	0.1978155
250	0x3e81787c	0.25287235
251	0x3e4bc927	0.19900952
252	0x3e80e785	0.25176635
253	0x3e4a8965	0.19778974
254	0x3e805fcd	0.2507309
255	0x3e49be60	0.19701529

tfl.pseudo_qconst i1 [1440, 32]
0	0x43	67
1	0xdf	-33
2	0x7f	127
3	0x60	96
4	0xfe	-2
5	0x3d	61
6	0xec	-20
7	0xe3	-29
8	0x0c	12
9	0xeb	-21
10	0xd8	-40
11	0x41	65
12	0x2d	45
13	0x12	18
14	0xe7	-25
15	0xde	-34
16	0x0d	13
17	0xf1	-15
18	0xcc	-52
19	0xe5	-27
20	0xf6	-10
21	0x4d	77
22	0xf0	-16
23	0x04	4
24	0xe7	-25
25	0x45	69
26	0x51	81
27	0x62	98
28	0xc2	-62
29	0x0f	15
30	0x2b	43
31	0xc1	-63
32	0x02	2
33	0xab	-85
34	0x0d	13
35	0xf8	-8
36	0x15	21
37	0xf2	-14
38	0xdc	-36
39	0x1e	30
40	0x14	20
41	0x4c	76
42	0xe7	-25
43	0xfd	-3
44	0x1a	26
45	0x59	89
46	0xba	-70
47	0x09	9
48	0x1e	30
49	0x03	3
50	0xeb	-21
51	0xf0	-16
52	0x46	70
53	0x81	-127
54	0x0b	11
55	0xff	-1
56	0x01	1
57	0x09	9
58	0xfa	-6
59	0x38	56
60	0x13	19
61	0x2e	46
62	0x2b	43
63	0xd6	-42
64	0x24	36
65	0xda	-38
66	0x6d	109
67	0x64	100
68	0x02	2
69	0x28	40
70	0xf5	-11
71	0xd0	-48
72	0x0c	12
73	0xef	-17
74	0xcc	-52
75	0x43	67
76	0x42	66
77	0x06	6
78	0xc7	-57
79	0xe6	-26
80	0x06	6
81	0xe6	-26
82	0xd1	-47
83	0xd8	-40
84	0xde	-34
85	0x50	80
86	0xff	-1
87	0xf0	-16
88	0xbd	-67
89	0x31	49
90	0x64	100
91	0x6c	108
92	0xcd	-51
93	0x29	41
94	0x21	33
95	0x81	-127
96	0x00	0
97	0xa3	-93
98	0xf7	-9
99	0xf9	-7
100	0x1b	27
101	0xec	-20
102	0xdb	-37
103	0x1b	27
104	0x1b	27
105	0x4c	76
106	0xf4	-12
107	0xfe	-2
108	0x14	20
109	0x54	84
110	0xbc	-68
111	0xf8	-8
112	0x27	39
113	0xfb	-5
114	0xf3	-13
115	0xea	-22
116	0x3b	59
117	0x81	-127
118	0x14	20
119	0x00	0
120	0xf1	-15
121	0xfa	-6
122	0x08	8
123	0x4d	77
124	0x14	20
125	0x27	39
126	0x27	39
127	0xde	-34
128	0x00	0
129	0xe1	-31
130	0x35	53
131	0x47	71
132	0xfe	-2
133	0x0c	12
134	0xfc	-4
135	0xbf	-65
136	0x08	8
137	0xf4	-12
138	0xd0	-48
139	0x27	39
140	0x31	49
141	0xf8	-8
142	0xb6	-74
143	0xee	-18
144	0x10	16
145	0xe5	-27
146	0xe1	-31
147	0xd3	-45
148	0xd5	-43
149	0x3d	61
150	0x10	16
151	0xd5	-43
152	0xa3	-93
153	0x11	17
154	0x52	82
155	0x4b	75
156	0xe4	-28
157	0x34	52
158	0x0f	15
159	0x81	-127
160	0xff	-1
161	0x9c	-100
162	0xe9	-23
163	0xf8	-8
164	0x1b	27
165	0xe7	-25
166	0xda	-38
167	0x17	23
168	0x21	33
169	0x4d	77
170	0xfe	-2
171	0x00	0
172	0x04	4
173	0x4f	79
174	0xc9	-55
175	0xea	-22
176	0x35	53
177	0xed	-19
178	0xfd	-3
179	0xe7	-25
180	0x33	51
181	0x81	-127
182	0x1c	28
183	0xfb	-5
184	0xda	-38
185	0xf1	-15
186	0x13	19
187	0x5b	91
188	0x12	18
189	0x20	32
190	0x24	36
191	0xf7	-9
192	0xe8	-24
193	0xe0	-32
194	0x16	22
195	0x3b	59
196	0xf6	-10
197	0xf6	-10
198	0xfd	-3
199	0x9d	-99
200	0x04	4
201	0xf5	-11
202	0xc9	-55
203	0x0f	15
204	0x2c	44
205	0xea	-22
206	0x9e	-98
207	0xe8	-24
208	0x25	37
209	0xde	-34
210	0xe8	-24
211	0xcb	-53
212	0xc6	-58
213	0x34	52
214	0x26	38
215	0xa5	-91
216	0x81	-127
217	0xfc	-4
218	0x54	84
219	0x31	49
220	0xee	-18
221	0x45	69
222	0x06	6
223	0x8d	-115
224	0xfe	-2
225	0x9a	-102
226	0xe9	-23
227	0xfa	-6
228	0x15	21
229	0xe7	-25
230	0xdb	-37
231	0x14	20
232	0x28	40
233	0x4d	77
234	0x04	4
235	0x00	0
236	0xf5	-11
237	0x4c	76
238	0xe5	-27
239	0xde	-34
240	0x3a	58
241	0xdf	-33
242	0x07	7
243	0xed	-19
244	0x27	39
245	0x81	-127
246	0x22	34
247	0xf9	-7
248	0xc2	-62
249	0xe8	-24
250	0x1d	29
251	0x5f	95
252	0x0c	12
253	0x1a	26
254	0x1d	29
255	0x12	18

arith.constant19 f4 [256]
0	0xb9f140a0	-0.0004601525
1	0xbc6fd8ae	-0.014639063
2	0x3d8ec5b0	0.069713
3	0x3bd47dcc	0.0064847227
4	0x3d44179e	0.047874086
5	0xbd1db55c	-0.038503036
6	0xbd0a2e70	-0.033735693
7	0xbd6abfb4	-0.05731173
8	0xbb8a480b	-0.004220014
9	0x3d7fd521	0.062459115
10	0xbd3cdf8e	-0.046111636
11	0xbcf74ace	-0.030187037
12	0xbd318022	-0.043335088
13	0xbc004785	-0.007829552
14	0xbcb5a080	-0.022171259
15	0xbc0f239d	-0.008736518
16	0x3c89df88	0.01683022
17	0x3c80290e	0.015644576
18	0x3d2b9134	0.041886523
19	0x3d30fa48	0.043207437
20	0x3c7a4d7c	0.015277263
21	0xbd93b7ac	-0.07212767
22	0x3d09d90e	0.033654265
23	0xbd454f39	-0.048171256
24	0xbd51416a	-0.051087774
25	0xbd45a397	-0.048251715
26	0xbd0b423b	-0.03399871
27	0xbc1e019c	-0.009643938
28	0x3d3bb9c8	0.04583147
29	0xbc39e989	-0.011347183
30	0x3d947298	0.072484195
31	0x3d337158	0.043809265
32	0xbd1d0225	-0.038332123
33	0x3e275cf8	0.16344059
34	0xbcc981d7	-0.024598045
35	0xbca6af50	-0.020347267
36	0xbd26b293	-0.040697645
37	0x3cbb4b9a	0.022863198
38	0x3d6af0e4	0.057358637
39	0x3c77568a	0.015096316
40	0xbdd8c88e	-0.10585128
41	0x3e2e1c94	0.17003089
42	0x3d04da45	0.03243472
43	0xbd0fddb6	-0.03512355
44	0xbc5ed8ab	-0.013601462
45	0xbd3d56a4	-0.046225205
46	0xbd5be790	-0.053687632
47	0xbc668437	-0.014069608
48	0xbc5b84d2	-0.013398366
49	0xbd1129f9	-0.03544042
50	0xbc67de7b	-0.014152165
51	0x3dfe8d1d	0.12429259
52	0xbd8e291f	-0.06941437
53	0xbd03d0d6	-0.032181583
54	0x3bb2982b	0.0054502687
55	0x3cae61e9	0.021286922
56	0x3d268fd0	0.040664494
57	0x3b49f32e	0.0030815112
58	0xbd37a2fd	-0.044833172
59	0xbbc29183	-0.0059377565
60	0x3d5015db	0.050802093
61	0xbd832067	-0.06402665
62	0x3c80cb3e	0.015721913
63	0xbd1f1054	-0.03883393
64	0x3f81a5f5	1.0128771
65	0x3f830756	1.0236614
66	0x3f93994d	1.1531159
67	0x3f8af2d4	1.0855355
68	0x3f819b40	1.0125504
69	0x3f82f525	1.0231062
70	0x3f79e5c9	0.9761625
71	0x3f7f1127	0.9963555
72	0x3f858279	1.0430442
73	0x3f8671a3	1.0503429
74	0x3f893935	1.0720583
75	0x3f800363	1.0001034
76	0x3f7f8715	0.99815494
77	0x3f810d28	1.008214
78	0x3f80148f	1.0006274
79	0x3f973368	1.1812563
80	0x3f8325ea	1.0245945
81	0x3f8725fa	1.0558465
82	0x3f8aebf1	1.0853254
83	0x3f80a7cd	1.0051209
84	0x3f80ef27	1.0072984
85	0x3f810617	1.0079983
86	0x3f83c421	1.0294229
87	0x3f809477	1.0045308
88	0x3f7d5200	0.9895325
89	0x3f7a3600	0.9773865
90	0x3f8649a4	1.0491223
91	0x3f808625	1.0040938
92	0x3f843ebe	1.0331647
93	0x3f819e8e	1.0126512
94	0x3f810c75	1.0081927
95	0x3f81b057	1.013194
96	0x3f7e0e2d	0.9924038
97	0x3f933152	1.1499426
98	0x3f7d0ea5	0.9885047
99	0x3f80ef02	1.0072939
100	0x3f839d48	1.0282373
101	0x3f895744	1.0729756
102	0x3f8a6f34	1.0815187
103	0x3f819fa8	1.0126848
104	0x3f88a980	1.0676727
105	0x3f8aa7f8	1.083251
106	0x3f7cf064	0.98804307
107	0x3f81dc52	1.0145361
108	0x3f7db448	0.9910321
109	0x3f7e4af2	0.9933311
110	0x3f81d961	1.0144464
111	0x3f83de04	1.0302129
112	0x3f811e4b	1.008737
113	0x3f81532c	1.0103507
114	0x3f80ae63	1.0053219
115	0x3f855187	1.0415505
116	0x3f829a6c	1.0203376
117	0x3f8b1f0f	1.0868853
118	0x3f810b20	1.008152
119	0x3f849020	1.0356483
120	0x3f85c29f	1.0450019
121	0x3f83d9c8	1.0300837
122	0x3f8405c0	1.0314255
123	0x3f875815	1.0573756
124	0x3f896dce	1.0736635
125	0x3f7fed40	0.9997139
126	0x3f8522a9	1.0401202
127	0x3f862561	1.0480157
128	0x3ba77cc6	0.0051113097
129	0x3c12067f	0.008912682
130	0x3c63d5f3	0.01390599
131	0xbd06c055	-0.032898266
132	0x3b0f5f6e	0.002187695
133	0xbc85a970	-0.016316146
134	0x3d00006c	0.031250402
135	0x3ce7fe15	0.028319398
136	0x3c856de4	0.016287751
137	0x3d0b4a1d	0.034006227
138	0xbd88b2d7	-0.06674736
139	0x3cfd58dc	0.03092616
140	0xbc4d65e1	-0.012536497
141	0xbc6ca863	-0.014444443
142	0xbcf8d332	-0.030374143
143	0x3c2eccd5	0.010668953
144	0xbcddcb66	-0.027074527
145	0x3d77cf59	0.060500477
146	0xbcee744a	-0.029108185
147	0xbc49759b	-0.012296106
148	0x3d08ea6e	0.033426695
149	0xbd6da2bf	-0.058016535
150	0x3b19301d	0.0023374625
151	0xbd2b69b8	-0.041848868
152	0x3d47b778	0.048758954
153	0xbbfcdaf5	-0.0077165314
154	0xbad7fc71	-0.0016478432
155	0x3b44b522	0.003001519
156	0xbb76fd39	-0.0037687554
157	0x3d04269b	0.03226338
158	0x3d236c16	0.039898
159	0x3903ae5a	0.00012558085
160	0x3bb1b724	0.0054234434
161	0x3c26b3b1	0.010174678
162	0x3bccb8d8	0.006247621
163	0xbb8db5f4	-0.004324669
164	0xbd4b4fe3	-0.049636733
165	0x3d848ac2	0.064717785
166	0x3d66136c	0.056170866
167	0xbc7ef8a2	-0.015562208
168	0xbd0d0c7a	-0.034435727
169	0x3ccf7e0e	0.025328662
170	0x3cce214b	0.02516236
171	0x3d267078	0.040634602
172	0xbc9202e8	-0.017823651
173	0xbd03be37	-0.032163825
174	0xbc90a1ec	-0.017655335
175	0xbd146f44	-0.036238924
176	0xbd6d2d68	-0.05790463
177	0xbd413a65	-0.04717483
178	0xbc941680	-0.018077135
179	0x3c4aa50f	0.012368455
180	0xbd36d965	-0.044640917
181	0x3bb7e037	0.0056114453
182	0xbcd565ba	-0.026049484
183	0xbcda17b4	-0.02662263
184	0xbce2b2db	-0.027673176
185	0x3d074582	0.033025272
186	0xbdb3fb80	-0.08788204
187	0x3d344b0b	0.04401688
188	0xbb6286eb	-0.003456528
189	0x3d2d3666	0.042288207
190	0xbac54cce	-0.0015052797
191	0xbbc40bb1	-0.005982839
192	0x392fe36a	0.00016774019
193	0xbc4a5db3	-0.012351441
194	0xbd019457	-0.03163561
195	0x3c2379d3	0.009977776
196	0x3d1363f8	0.03598401
197	0xbcee1bb8	-0.029065952
198	0xbd01bd58	-0.031674713
199	0xbd7ecd60	-0.06220758
200	0x3c892fec	0.016746484
201	0x3d77f2fe	0.06053447
202	0x3ca2cf62	0.019874278
203	0xbd1f3489	-0.03886846
204	0xbd270757	-0.040778484
205	0x3b965ad9	0.0045884666
206	0xbc859610	-0.016306907
207	0xbcfaf222	-0.030633036
208	0x3cbd521c	0.023110442
209	0xbd82dcca	-0.063897684
210	0x3d70fe7f	0.058836456
211	0x3d39c1e6	0.04535093
212	0x3c279115	0.010227461
213	0xbda5319e	-0.08066104
214	0x3d149f03	0.036284458
215	0xbd5d8ae6	-0.054087542
216	0xbd5e8612	-0.05432708
217	0xbdac9777	-0.08427327
218	0xbd3dd905	-0.046349544
219	0xbb6f9ffb	-0.0036563862
220	0x3d56c291	0.052431647
221	0x3b4a328d	0.0030852885
222	0x3d214c8b	0.039379638
223	0x3d280834	0.041023448
224	0xbd034220	-0.032045484
225	0x3db73a32	0.08946647
226	0xbd049f0d	-0.032378245
227	0xbc93b552	-0.018030796
228	0xbd8d2338	-0.06891483
229	0x3ce38baf	0.027776567
230	0xbc995138	-0.018715486
231	0x3cbe4a02	0.023228649
232	0x3c1dce08	0.009631641
233	0x3e2432d8	0.1603502
234	0x3cbce82f	0.023059933
235	0xbcfc43e8	-0.030794099
236	0xbbdbeaf9	-0.0067113605
237	0xbd3594fe	-0.044331543
238	0xbd474207	-0.048646953
239	0xbc793f20	-0.015212804
240	0xbbfbf32f	-0.007688902
241	0xbc962c17	-0.01833157
242	0xbcd82c9e	-0.026388463
243	0x3d44016c	0.04785292
244	0xbd120e5a	-0.035658218
245	0xbc35d92e	-0.011099143
246	0xbc108104	-0.008819822
247	0x3c76f5fa	0.015073294
248	0x3d18bc27	0.03728881
249	0xbc26e890	-0.010187283
250	0xbd8c53b2	-0.06851901
251	0xbce92053	-0.028457796
252	0xbd7a3906	-0.061089538
253	0xbd6f59e5	-0.05843534
254	0x3c764e52	0.015033321
255	0xbd1706c4	-0.036871687

tfl.pseudo_qconst1 i1 [256, 8]
0	0x19	25
1	0x24	36
2	0x7f	127
3	0xf0	-16
4	0xcf	-49
5	0x7c	124
6	0x47	71
7	0x77	119
8	0x43	67
9	0x9d	-99
10	0x2a	42
11	0xe4	-28
12	0xc3	-61
13	0x7f	127
14	0x30	48
15	0xcc	-52
16	0xd3	-45
17	0x7f	127
18	0x43	67
19	0x55	85
20	0x52	82
21	0xd6	-42
22	0x4b	75
23	0x87	-121
24	0xfd	-3
25	0xf8	-8
26	0xed	-19
27	0x11	17
28	0x00	0
29	0x81	-127
30	0xf4	-12
31	0xeb	-21
32	0xa2	-94
33	0xd0	-48
34	0x4e	78
35	0x7d	125
36	0x1a	26
37	0x7f	127
38	0x25	37
39	0x3e	62
40	0x7f	127
41	0x93	-109
42	0x85	-123
43	0x15	21
44	0xb3	-77
45	0x5a	90
46	0xeb	-21
47	0x31	49
48	0xc0	-64
49	0xed	-19
50	0x07	7
51	0xaa	-86
52	0x7e	126
53	0x81	-127
54	0xa9	-87
55	0xc1	-63
56	0x4a	74
57	0x7d	125
58	0xee	-18
59	0xd8	-40
60	0xa5	-91
61	0x7f	127
62	0xf9	-7
63	0x10	16
64	0x81	-127
65	0x06	6
66	0x34	52
67	0xfa	-6
68	0x18	24
69	0xef	-17
70	0x29	41
71	0xe0	-32
72	0x81	-127
73	0x2d	45
74	0x21	33
75	0x54	84
76	0xe3	-29
77	0x1e	30
78	0xf2	-14
79	0xdc	-36
80	0xf0	-16
81	0x7f	127
82	0x09	9
83	0xf0	-16
84	0xdd	-35
85	0xf3	-13
86	0xc9	-55
87	0xf3	-13
88	0x81	-127
89	0xaf	-81
90	0x17	23
91	0xa5	-91
92	0x9c	-100
93	0x22	34
94	0x08	8
95	0xa2	-94
96	0xf8	-8
97	0x81	-127
98	0xa1	-95
99	0xeb	-21
100	0xff	-1
101	0x41	65
102	0xe2	-30
103	0xca	-54
104	0x00	0
105	0x81	-127
106	0xcf	-49
107	0xe8	-24
108	0x3b	59
109	0x6f	111
110	0xed	-19
111	0xb5	-75
112	0x81	-127
113	0xde	-34
114	0xa6	-90
115	0x40	64
116	0xf3	-13
117	0x51	81
118	0x40	64
119	0xe7	-25
120	0x11	17
121	0x1a	26
122	0x1f	31
123	0xfa	-6
124	0xb1	-79
125	0xec	-20
126	0xdf	-33
127	0x81	-127
128	0x06	6
129	0xf4	-12
130	0xd8	-40
131	0x11	17
132	0x45	69
133	0x7f	127
134	0xb4	-76
135	0x62	98
136	0xdb	-37
137	0xd0	-48
138	0x46	70
139	0x9b	-101
140	0x81	-127
141	0x70	112
142	0x27	39
143	0x0a	10
144	0x48	72
145	0x17	23
146	0x28	40
147	0xe9	-23
148	0xfa	-6
149	0x81	-127
150	0x2a	42
151	0x14	20
152	0xe7	-25
153	0x10	16
154	0x41	65
155	0x38	56
156	0x23	35
157	0x7f	127
158	0xf0	-16
159	0xfb	-5
160	0xa7	-89
161	0xd2	-46
162	0x7f	127
163	0xa7	-89
164	0x9e	-98
165	0x66	102
166	0x53	83
167	0x46	70
168	0x81	-127
169	0xe2	-30
170	0xc1	-63
171	0xf7	-9
172	0x12	18
173	0x6c	108
174	0xdf	-33
175	0xfa	-6
176	0x45	69
177	0x45	69
178	0x25	37
179	0xd3	-45
180	0x7f	127
181	0x4b	75
182	0x97	-105
183	0x70	112
184	0x91	-111
185	0xe6	-26
186	0x03	3
187	0xad	-83
188	0xc5	-59
189	0x3c	60
190	0x30	48
191	0x81	-127
192	0xff	-1
193	0x06	6
194	0xec	-20
195	0x8b	-117
196	0x2f	47
197	0x73	115
198	0x96	-106
199	0x81	-127
200	0x8f	-113
201	0xcb	-53
202	0x2a	42
203	0x4f	79
204	0x81	-127
205	0xbf	-65
206	0xd4	-44
207	0x10	16
208	0x02	2
209	0x81	-127
210	0x99	-103
211	0x7b	123
212	0x11	17
213	0xdd	-35
214	0xc6	-58
215	0xe9	-23
216	0x14	20
217	0x05	5
218	0x17	23
219	0x01	1
220	0x81	-127
221	0xe1	-31
222	0xf7	-9
223	0xd3	-45
224	0xd2	-46
225	0xda	-38
226	0x32	50
227	0x4f	79
228	0x81	-127
229	0xeb	-21
230	0x3e	62
231	0xee	-18
232	0xdf	-33
233	0x7f	127
234	0x18	24
235	0x36	54
236	0xb1	-79
237	0x1f	31
238	0xcb	-53
239	0xc2	-62
240	0x17	23
241	0x89	-119
242	0xf6	-10
243	0x0f	15
244	0xfc	-4
245	0x7f	127
246	0x27	39
247	0xfd	-3
248	0x82	-126
249	0xfa	-6
250	0x18	24
251	0x7f	127
252	0x5e	94
253	0x17	23
254	0x69	105
255	0xc7	-57

tfl.pseudo_qconst2 i1 [256, 64]
0	0x1b	27
1	0x20	32
2	0x0b	11
3	0x27	39
4	0x12	18
5	0x37	55
6	0x32	50
7	0x29	41
8	0xda	-38
9	0x30	48
10	0xcb	-53
11	0xa3	-93
12	0xe2	-30
13	0xb0	-80
14	0x24	36
15	0xe2	-30
16	0x06	6
17	0x81	-127
18	0x4c	76
19	0x12	18
20	0x33	51
21	0x08	8
22	0x24	36
23	0xd4	-44
24	0xec	-20
25	0x21	33
26	0x2d	45
27	0xfa	-6
28	0x07	7
29	0x0f	15
30	0x42	66
31	0xf5	-11
32	0xfd	-3
33	0xee	-18
34	0x09	9
35	0x4c	76
36	0xe6	-26
37	0xdf	-33
38	0xcb	-53
39	0x1d	29
40	0x42	66
41	0x46	70
42	0xf0	-16
43	0xda	-38
44	0x1c	28
45	0x05	5
46	0x33	51
47	0xe9	-23
48	0x2a	42
49	0x2c	44
50	0x02	2
51	0x2c	44
52	0x30	48
53	0xd0	-48
54	0xbb	-69
55	0xd5	-43
56	0xfb	-5
57	0x05	5
58	0x00	0
59	0xc9	-55
60	0xe9	-23
61	0xb6	-74
62	0xef	-17
63	0xf7	-9
64	0x20	32
65	0xeb	-21
66	0xfb	-5
67	0x01	1
68	0xb6	-74
69	0x15	21
70	0x2f	47
71	0xeb	-21
72	0x56	86
73	0x35	53
74	0xf0	-16
75	0x1f	31
76	0xd7	-41
77	0x28	40
78	0x1d	29
79	0xf8	-8
80	0x52	82
81	0x26	38
82	0xfb	-5
83	0x44	68
84	0x52	82
85	0x1d	29
86	0x91	-111
87	0xd2	-46
88	0x9a	-102
89	0xff	-1
90	0x07	7
91	0xdf	-33
92	0xbb	-69
93	0xde	-34
94	0xd9	-39
95	0x32	50
96	0x43	67
97	0x09	9
98	0xfd	-3
99	0xad	-83
100	0x7b	123
101	0x07	7
102	0xd7	-41
103	0x1f	31
104	0x7f	127
105	0x10	16
106	0xdc	-36
107	0xd0	-48
108	0x36	54
109	0xe5	-27
110	0xd1	-47
111	0xaa	-86
112	0xd6	-42
113	0xf4	-12
114	0x14	20
115	0xf1	-15
116	0xfd	-3
117	0xe9	-23
118	0xd3	-45
119	0x05	5
120	0xe7	-25
121	0xdb	-37
122	0x06	6
123	0xcc	-52
124	0xf8	-8
125	0xd3	-45
126	0x40	64
127	0x05	5
128	0xf9	-7
129	0xf9	-7
130	0xef	-17
131	0x30	48
132	0x13	19
133	0xf5	-11
134	0xd3	-45
135	0x05	5
136	0x1a	26
137	0xf2	-14
138	0x08	8
139	0x12	18
140	0x11	17
141	0x22	34
142	0xfa	-6
143	0x81	-127
144	0xe1	-31
145	0xec	-20
146	0xd8	-40
147	0xfd	-3
148	0x2e	46
149	0x0b	11
150	0x0c	12
151	0x1b	27
152	0x26	38
153	0x18	24
154	0x0b	11
155	0xf1	-15
156	0xcd	-51
157	0x0a	10
158	0xdb	-37
159	0x0f	15
160	0xfe	-2
161	0xb2	-78
162	0x27	39
163	0x3a	58
164	0xd1	-47
165	0xe2	-30
166	0xa9	-87
167	0xb2	-78
168	0xa6	-90
169	0xbd	-67
170	0x1a	26
171	0x35	53
172	0x2a	42
173	0x06	6
174	0x01	1
175	0x13	19
176	0x00	0
177	0x60	96
178	0xee	-18
179	0x13	19
180	0x07	7
181	0x64	100
182	0x05	5
183	0xe4	-28
184	0xfb	-5
185	0x20	32
186	0xf9	-7
187	0xde	-34
188	0xba	-70
189	0xc5	-59
190	0xf6	-10
191	0xa3	-93
192	0x1e	30
193	0x0f	15
194	0xf6	-10
195	0xe5	-27
196	0xda	-38
197	0x05	5
198	0x09	9
199	0xea	-22
200	0x08	8
201	0x15	21
202	0xe7	-25
203	0x09	9
204	0x1f	31
205	0xf1	-15
206	0xd6	-42
207	0x3a	58
208	0xed	-19
209	0x11	17
210	0x08	8
211	0xf6	-10
212	0xdb	-37
213	0xeb	-21
214	0x3c	60
215	0xe1	-31
216	0x0b	11
217	0xf5	-11
218	0x03	3
219	0x13	19
220	0x0f	15
221	0x02	2
222	0xe9	-23
223	0xf0	-16
224	0xe6	-26
225	0x7f	127
226	0x05	5
227	0x34	52
228	0xf9	-7
229	0xe9	-23
230	0xff	-1
231	0x01	1
232	0xb0	-80
233	0x7f	127
234	0x31	49
235	0x43	67
236	0x2f	47
237	0xf9	-7
238	0x2e	46
239	0xb3	-77
240	0xea	-22
241	0xed	-19
242	0xee	-18
243	0xf2	-14
244	0xf4	-12
245	0xc3	-61
246	0x25	37
247	0x00	0
248	0xd3	-45
249	0xd9	-39
250	0xce	-50
251	0x14	20
252	0x34	52
253	0xc4	-60
254	0x21	33
255	0x3f	63

arith.constant23 f4 [128]
0	0x3ce228d1	0.027607353
1	0xbe5589d7	-0.20853363
2	0x3df51412	0.11966719
3	0xbc1ba8f9	-0.009500735
4	0xbdf80c10	-0.12111676
5	0x3c36b1a5	0.011150752
6	0xbdda01a9	-0.10644848
7	0x3bbdef7d	0.0057963715
8	0x3d3124c1	0.043247942
9	0xbd40938b	-0.047015708
10	0x3d97ebaf	0.07418
11	0x3c40e097	0.011772296
12	0x3de56ddc	0.11202595
13	0xbc354edf	-0.011066168
14	0xbc0498ba	-0.0080930535
15	0xbd3266f4	-0.043555215
16	0x3cc2bc3e	0.023771401
17	0xbd837882	-0.064194694
18	0xbd36cb7c	-0.04462765
19	0x3c879f1b	0.01655536
20	0xbe66a926	-0.22525463
21	0xbd6e275a	-0.058142997
22	0x3d995090	0.07486069
23	0x3d6b7bf1	0.057491247
24	0x3ce14e2e	0.0275031
25	0x3da4a5cf	0.08039438
26	0xbe093572	-0.13399294
27	0xbe096ce0	-0.13420439
28	0xbe1dba1c	-0.15403026
29	0x3c2b594b	0.010458301
30	0xbd89a3f6	-0.06720726
31	0x3e144cc7	0.14482413
32	0x3f7e42d8	0.99320745
33	0x3fadffbf	1.3593673
34	0x3f89c9ed	1.0764748
35	0x3f8401d9	1.0313064
36	0x3f84458a	1.0333722
37	0x3f881a02	1.0632937
38	0x3f8b7c69	1.0897342
39	0x3f87e250	1.061594
40	0x3f9703a7	1.179799
41	0x3f8f3dff	1.1190795
42	0x3f852a23	1.0403484
43	0x3f873f61	1.0566217
44	0x3f866199	1.0498534
45	0x3f8d88e9	1.1057407
46	0x3f843866	1.0329711
47	0x3f8942e3	1.0723537
48	0x3f85ea46	1.046212
49	0x3f8ed8ce	1.1159914
50	0x3f86a217	1.0518216
51	0x3f8d43ec	1.1036353
52	0x3f861f46	1.0478294
53	0x3f8d147c	1.1021876
54	0x3f8769c7	1.0579156
55	0x3f88fa9e	1.0701482
56	0x3f82c594	1.0216546
57	0x3f819307	1.0122994
58	0x3f83c3e6	1.0294158
59	0x3f7f7c27	0.99798816
60	0x3f88fd05	1.0702215
61	0x3f8bc123	1.0918316
62	0x3f884472	1.0645888
63	0x3f8b616e	1.0889108
64	0xbda56189	-0.08075244
65	0x3d197091	0.037460867
66	0xbd97c0b3	-0.07409801
67	0x3cfd59d3	0.03092662
68	0xbc8a4271	-0.016877385
69	0xbcd7751f	-0.026300965
70	0x3d8cf8b4	0.06883374
71	0x3d70fc1e	0.058834188
72	0xbd2d786b	-0.042351168
73	0xbd131a5c	-0.03591381
74	0xbda7973c	-0.081831425
75	0x3d030589	0.0319877
76	0x3d809c4f	0.062798135
77	0xbc46f655	-0.012143691
78	0x3cfcb0da	0.030846048
79	0xbd4ef836	-0.05052968
80	0x3cf9318f	0.03041914
81	0xbc713d2e	-0.014724059
82	0x3c53aa88	0.012919076
83	0xbd7590f9	-0.05995271
84	0xbd6793a1	-0.056537274
85	0x3badefee	0.005308143
86	0xbd0f800e	-0.03503423
87	0x3d48034d	0.048831273
88	0x3d21f4a2	0.03953994
89	0x3d5baffc	0.05363463
90	0xbd50c76d	-0.050971437
91	0xbd386685	-0.045019645
92	0xbd5aab71	-0.053386156
93	0xbcc20300	-0.023683071
94	0x3cb1a6e2	0.021686021
95	0x3da9c144	0.082888156
96	0x3c63d15b	0.013904895
97	0x3de0eed5	0.109830536
98	0x3c928f4b	0.017890593
99	0x3dc3796a	0.09544642
100	0x3c82d7c1	0.01597202
101	0x3ce47cc6	0.027891528
102	0x3d278ac9	0.04090384
103	0x3dc1e324	0.09467152
104	0xbdf928d8	-0.121659935
105	0x3d31dc85	0.043423194
106	0x3d281de7	0.041044142
107	0x3d0d2046	0.034454606
108	0x3d023090	0.031784594
109	0xbd098848	-0.033577234
110	0xbc4084fd	-0.011750457
111	0x3d15094c	0.03638582
112	0x3d5d97dc	0.054099903
113	0x3c82339c	0.01589375
114	0x3d935d9b	0.07195588
115	0x3dd252fb	0.102697335
116	0x3ca76057	0.02043168
117	0x3db36370	0.087592006
118	0x3cfb8379	0.03070234
119	0x3cd99023	0.026557988
120	0x3dc584d4	0.096444756
121	0xbb93b23e	-0.004507332
122	0x3d1bada0	0.03800738
123	0x3d75035b	0.059817653
124	0x3dd5d9ff	0.1044197
125	0x3de2f21f	0.11081337
126	0x3ca8cb2b	0.02060469
127	0x3b1f76b7	0.0024332234

tfl.pseudo_qconst3 i1 [128, 64]
0	0xda	-38
1	0xd8	-40
2	0x0b	11
3	0xe7	-25
4	0xe9	-23
5	0x0d	13
6	0x25	37
7	0xb0	-80
8	0xf1	-15
9	0xdc	-36
10	0x3f	63
11	0xe5	-27
12	0x03	3
13	0x23	35
14	0xe4	-28
15	0x3c	60
16	0x03	3
17	0x3c	60
18	0x81	-127
19	0xd8	-40
20	0xd9	-39
21	0x14	20
22	0xf0	-16
23	0xe0	-32
24	0x01	1
25	0x13	19
26	0x3c	60
27	0x1a	26
28	0x13	19
29	0xee	-18
30	0x43	67
31	0x13	19
32	0xc0	-64
33	0x46	70
34	0xce	-50
35	0x93	-109
36	0x19	25
37	0x10	16
38	0xf2	-14
39	0x26	38
40	0x03	3
41	0x37	55
42	0xf4	-12
43	0x0e	14
44	0xcf	-49
45	0xe0	-32
46	0x00	0
47	0x38	56
48	0xfc	-4
49	0xd6	-42
50	0xc5	-59
51	0x14	20
52	0x31	49
53	0x09	9
54	0xf8	-8
55	0x21	33
56	0xe1	-31
57	0xfa	-6
58	0xe3	-29
59	0x23	35
60	0xfc	-4
61	0xdd	-35
62	0x3f	63
63	0x1e	30
64	0xf0	-16
65	0x5b	91
66	0xf0	-16
67	0xff	-1
68	0xf6	-10
69	0xee	-18
70	0x30	48
71	0x2b	43
72	0x11	17
73	0xe1	-31
74	0x81	-127
75	0xbd	-67
76	0x0f	15
77	0x0a	10
78	0xe0	-32
79	0x5a	90
80	0x99	-103
81	0xfb	-5
82	0x12	18
83	0xbc	-68
84	0x26	38
85	0x19	25
86	0x35	53
87	0xec	-20
88	0xe5	-27
89	0xc0	-64
90	0xfb	-5
91	0x10	16
92	0xdc	-36
93	0x39	57
94	0xfe	-2
95	0x10	16
96	0x02	2
97	0x31	49
98	0xda	-38
99	0xed	-19
100	0xe9	-23
101	0x12	18
102	0x6b	107
103	0x2d	45
104	0xfa	-6
105	0xc5	-59
106	0xd8	-40
107	0x45	69
108	0xf0	-16
109	0xe7	-25
110	0xe3	-29
111	0xe3	-29
112	0xd4	-44
113	0x05	5
114	0x11	17
115	0xeb	-21
116	0xec	-20
117	0xe6	-26
118	0x13	19
119	0x1c	28
120	0xce	-50
121	0x02	2
122	0x29	41
123	0x37	55
124	0x07	7
125	0x03	3
126	0x06	6
127	0x0b	11
128	0xf5	-11
129	0xcd	-51
130	0xd9	-39
131	0xac	-84
132	0x10	16
133	0x18	24
134	0xe5	-27
135	0x2b	43
136	0x3d	61
137	0x7f	127
138	0xb6	-74
139	0x2d	45
140	0xda	-38
141	0xfb	-5
142	0x19	25
143	0xe3	-29
144	0x47	71
145	0xfd	-3
146	0x39	57
147	0x62	98
148	0x27	39
149	0xe3	-29
150	0xae	-82
151	0x8b	-117
152	0x04	4
153	0xe2	-30
154	0x2d	45
155	0xfe	-2
156	0xd9	-39
157	0xf6	-10
158	0x08	8
159	0xc8	-56
160	0x49	73
161	0xde	-34
162	0x33	51
163	0xbe	-66
164	0x21	33
165	0x38	56
166	0x1c	28
167	0x50	80
168	0x66	102
169	0x5a	90
170	0xdd	-35
171	0xbc	-68
172	0xa7	-89
173	0x33	51
174	0x92	-110
175	0x0d	13
176	0xb3	-77
177	0x03	3
178	0x28	40
179	0xbd	-67
180	0x15	21
181	0x0a	10
182	0xd9	-39
183	0xb7	-73
184	0x06	6
185	0x1b	27
186	0xa4	-92
187	0x0b	11
188	0xae	-82
189	0x22	34
190	0x44	68
191	0x15	21
192	0xef	-17
193	0x49	73
194	0x33	51
195	0xd1	-47
196	0xea	-22
197	0x93	-109
198	0x70	112
199	0xdb	-37
200	0x06	6
201	0x08	8
202	0xb2	-78
203	0x17	23
204	0x37	55
205	0xbf	-65
206	0xa9	-87
207	0x74	116
208	0x10	16
209	0x3f	63
210	0x81	-127
211	0xf2	-14
212	0xe5	-27
213	0x13	19
214	0xdb	-37
215	0xe8	-24
216	0xdf	-33
217	0xa6	-90
218	0x53	83
219	0xb3	-77
220	0xe6	-26
221	0xef	-17
222	0x2e	46
223	0x1c	28
224	0x14	20
225	0x45	69
226	0x1f	31
227	0x25	37
228	0x4b	75
229	0xbf	-65
230	0x20	32
231	0x5b	91
232	0x45	69
233	0xfd	-3
234	0x02	2
235	0x45	69
236	0x1d	29
237	0x08	8
238	0x89	-119
239	0xf2	-14
240	0xb3	-77
241	0xfa	-6
242	0x55	85
243	0xff	-1
244	0xad	-83
245	0xe6	-26
246	0x70	112
247	0xc9	-55
248	0xb3	-77
249	0xb4	-76
250	0xa6	-90
251	0x16	22
252	0x75	117
253	0x28	40
254	0x16	22
255	0xe5	-27

tfl.pseudo_qconst4 i1 [128, 32]
0	0xe9	-23
1	0x09	9
2	0xec	-20
3	0x01	1
4	0x1b	27
5	0x04	4
6	0xb4	-76
7	0xcd	-51
8	0xe1	-31
9	0xa6	-90
10	0x8f	-113
11	0x7f	127
12	0x09	9
13	0x0d	13
14	0xdb	-37
15	0xac	-84
16	0x1b	27
17	0x0d	13
18	0xbe	-66
19	0x1c	28
20	0xf8	-8
21	0xd0	-48
22	0xb0	-80
23	0xf9	-7
24	0x23	35
25	0x41	65
26	0x18	24
27	0x32	50
28	0x1b	27
29	0x48	72
30	0x9d	-99
31	0x07	7
32	0xc6	-58
33	0x2b	43
34	0xf4	-12
35	0xdf	-33
36	0xfb	-5
37	0xfa	-6
38	0xd1	-47
39	0x3c	60
40	0x7f	127
41	0xa6	-90
42	0x26	38
43	0xcb	-53
44	0xca	-54
45	0xda	-38
46	0x14	20
47	0xea	-22
48	0xfb	-5
49	0x2a	42
50	0xce	-50
51	0x33	51
52	0x2a	42
53	0xea	-22
54	0xd0	-48
55	0x71	113
56	0x21	33
57	0xf7	-9
58	0xc9	-55
59	0x3c	60
60	0xeb	-21
61	0xb1	-79
62	0xd3	-45
63	0x08	8
64	0xe8	-24
65	0x0c	12
66	0xb4	-76
67	0xcd	-51
68	0x35	53
69	0xf9	-7
70	0xf1	-15
71	0xca	-54
72	0x14	20
73	0x53	83
74	0xfa	-6
75	0x81	-127
76	0x53	83
77	0x0f	15
78	0xe5	-27
79	0x15	21
80	0xfa	-6
81	0xdb	-37
82	0x85	-123
83	0xf7	-9
84	0x15	21
85	0xdf	-33
86	0xda	-38
87	0x19	25
88	0x5a	90
89	0x40	64
90	0x0d	13
91	0xae	-82
92	0x28	40
93	0x1e	30
94	0x4f	79
95	0xb2	-78
96	0xf8	-8
97	0xb6	-74
98	0xc8	-56
99	0xfd	-3
100	0x2b	43
101	0xd5	-43
102	0x12	18
103	0xeb	-21
104	0x3a	58
105	0xd7	-41
106	0x09	9
107	0xed	-19
108	0x11	17
109	0xe0	-32
110	0x16	22
111	0x37	55
112	0xd7	-41
113	0x04	4
114	0x13	19
115	0x2e	46
116	0x35	53
117	0x27	39
118	0x00	0
119	0x0a	10
120	0x08	8
121	0x23	35
122	0x02	2
123	0x81	-127
124	0x1b	27
125	0xea	-22
126	0xdc	-36
127	0xf4	-12
128	0x0e	14
129	0x79	121
130	0x81	-127
131	0xca	-54
132	0xe9	-23
133	0xf5	-11
134	0xe2	-30
135	0x0c	12
136	0x0c	12
137	0x0c	12
138	0xf5	-11
139	0xf0	-16
140	0xbd	-67
141	0xba	-70
142	0x03	3
143	0xcc	-52
144	0xd4	-44
145	0x1a	26
146	0x33	51
147	0x03	3
148	0x08	8
149	0x09	9
150	0x01	1
151	0x18	24
152	0x18	24
153	0x1e	30
154	0xde	-34
155	0xd9	-39
156	0x0c	12
157	0x0a	10
158	0xf0	-16
159	0x17	23
160	0x1a	26
161	0x1e	30
162	0x18	24
163	0xd6	-42
164	0x5e	94
165	0x29	41
166	0x12	18
167	0xfc	-4
168	0xe4	-28
169	0x4a	74
170	0xce	-50
171	0x1d	29
172	0x21	33
173	0x5e	94
174	0x0a	10
175	0x03	3
176	0xd9	-39
177	0xb6	-74
178	0xe2	-30
179	0xe2	-30
180	0xc7	-57
181	0xe1	-31
182	0xa5	-91
183	0x7f	127
184	0x56	86
185	0x67	103
186	0xc9	-55
187	0xf9	-7
188	0x5f	95
189	0x1c	28
190	0xcd	-51
191	0xef	-17
192	0x23	35
193	0xcf	-49
194	0x4a	74
195	0x51	81
196	0x02	2
197	0xc8	-56
198	0x7c	124
199	0x24	36
200	0x74	116
201	0x08	8
202	0x01	1
203	0x12	18
204	0x16	22
205	0xe9	-23
206	0x81	-127
207	0xf0	-16
208	0x34	52
209	0x34	52
210	0x37	55
211	0x60	96
212	0xca	-54
213	0x07	7
214	0xe9	-23
215	0xaa	-86
216	0x0a	10
217	0x2b	43
218	0xcb	-53
219	0xf4	-12
220	0xa3	-93
221	0xd8	-40
222	0xe0	-32
223	0x24	36
224	0x25	37
225	0xec	-20
226	0xd9	-39
227	0x40	64
228	0x3e	62
229	0x18	24
230	0x13	19
231	0x5f	95
232	0xb0	-80
233	0x17	23
234	0x37	55
235	0x11	17
236	0xbc	-68
237	0x81	-127
238	0xed	-19
239	0xd9	-39
240	0x4f	79
241	0x49	73
242	0x0e	14
243	0xec	-20
244	0xc3	-61
245	0xbf	-65
246	0xee	-18
247	0xf0	-16
248	0x3f	63
249	0xf2	-14
250	0xcb	-53
251	0x04	4
252	0xd1	-47
253	0xc2	-62
254	0x59	89
255	0x65	101
