Models_Convert_tf/SportsCenter_tflite/SportsCenter_lstm.tflite (tflite, 95704 bytes, 8 tensors)

arith.constant12 f4 [720]
0.31785858 0.31499448 0.31460273 0.31441405 0.314133 0.31468394 0.31502956 0.31555685
0.3162353 0.31810692 0.3209548 0.3244313 0.32670155 0.32746848 0.32621822 0.32399395
0.32380423 0.32387897 0.32301456 0.32159495 0.32084665 0.31950298 0.31740117 0.314483
0.31224698 0.31271723 0.31354508 0.31499797 0.31629923 0.31839034 0.32037133 0.32303283
0.32610866 0.3286077 0.3293357 0.33099005 0.33168322 0.33153045 0.33103627 0.32963425
0.32701778 0.3236359 0.31951347 0.3161133 0.31329247 0.3106825 0.30956823 0.30873218
0.30833575 0.30866072 0.31070945 0.31410706 0.31584477 0.31686223 0.31752616 0.31876358
0.31918928 0.32165307 0.32456934 0.3259738 0.32918808 0.33256364 0.3344122 0.3339679
0.32968643 0.32745424 0.32555363 0.32306966 0.31995398 0.31734148 0.31440073 0.3124895
0.31195438 0.31244403 0.314931 0.31613475 0.31704625 0.31735638 0.31829822 0.31873533
0.31916478 0.31955037 0.31839243 0.31966656 0.32313254 0.3262135 0.3278312 0.32761392
0.32663912 0.3272147 0.3273601 0.32677686 0.32403797 0.3211732 0.3188592 0.3176974
0.3155196 0.31662896 0.31800035 0.3177063 0.31539193 0.31460464 0.3158658 0.31602997
0.31508347 0.31399086 0.31417677 0.31499138 0.31751567 0.31943688 0.32028452 0.32004118
0.31920624 0.31943047 0.3189943 0.31903002 0.31685212 0.31461442 0.31291702 0.31121418
0.31189296 0.3145022 0.31437346 0.3122657 0.31130013 0.30976292 0.30878806 0.3076339
0.30639672 0.30667147 0.30663678 0.30995318 0.31433287 0.31794322 0.31979656 0.3199945
0.32079867 0.32173404 0.32178563 0.32155895 0.32096726 0.31966686 0.3175722 0.316209
0.3165618 0.31760177 0.31780884 0.31642333 0.31453764 0.31262347 0.31170106 0.31242836
0.3124589 0.3126734 0.31405345 0.31492198 0.31746352 0.3194358 0.3210546 0.32138902
0.323 0.3256482 0.3262924 0.3250135 0.32348043 0.32147846 0.32084334 0.31962666
0.31663412 0.31423602 0.31400743 0.31378013 0.31313303 0.31370187 0.31354117 0.31374884
0.31414533 0.31612077 0.31831145 0.32172868 0.32333106 0.32354113 0.32221466 0.3192642
0.3175823 0.31623027 0.3143667 0.3122049 0.31123987 0.31086132 0.30932248 0.30625278
0.30423534 0.30489957 0.3050859 0.3068547 0.3091734 0.31158358 0.3143797 0.31737897
0.32024005 0.3212878 0.32143116 0.32361162 0.32513902 0.3253012 0.3245561 0.32200566
0.31817406 0.3143584 0.31019706 0.3071342 0.30513456 0.30322808 0.30337074 0.30398494
0.30453637 0.30586377 0.30837646 0.31090772 0.31236488 0.31319016 0.31383714 0.3151688
0.3170332 0.32000637 0.3238368 0.3259971 0.32783675 0.32964236 0.33023825 0.3286714
0.3240935 0.32198897 0.3193983 0.31683013 0.3146986 0.31304076 0.31050625 0.30847505
0.3078362 0.30844396 0.31149146 0.3132857 0.3140596 0.31362966 0.31421414 0.31374702
0.3139992 0.31459364 0.31357503 0.31377077 0.315731 0.31862065 0.32024264 0.3200386
00000000: 5cbe a23e f546 a13e 9c13 a13e e1fa a03e
00000010: 0ad6 a03e 411e a13e 8e4b a13e ab90 a13e
00000020: 98e9 a13e e9de a23e 3054 a43e dc1b a63e
00000030: 6d45 a73e f3a9 a73e 1306 a73e 89e2 a53e
00000040: abc9 a53e 77d3 a53e 2a62 a53e 18a8 a43e
00000050: 0346 a43e e595 a33e 6882 a23e ea03 a13e
00000060: d6de 9f3e 791c a03e fb88 a03e 6a47 a13e
00000070: f9f1 a13e 0f04 a33e b607 a43e 8f64 a53e
00000080: b7f7 a63e 453f a83e b09e a83e 8777 a93e
00000090: 62d2 a93e 5cbe a93e 967d a93e d2c5 a83e
000000a0: e06e a73e 9bb3 a53e 4597 a33e 9ad9 a13e
000000b0: df67 a03e c711 9f3e ba7f 9e3e 2512 9e3e
000000c0: 2fde 9d3e c708 9e3e 4f15 9f3e a4d2 a03e
000000d0: 68b6 a13e c43b a23e ca92 a23e fb34 a33e
000000e0: c76c a33e b6af a43e f42d a63e 0ae6 a63e
000000f0: 578b a83e c845 aa3e 1338 ab3e d7fd aa3e
00000100: a9cc a83e 15a8 a73e f7ae a63e 6369 a53e
00000110: 02d1 a33e 957a a23e 22f9 a03e a0fe 9f3e
00000120: 7cb8 9f3e aaf8 9f3e a33e a13e 6adc a13e
00000130: e353 a23e 897c a23e fcf7 a23e 4731 a33e
00000140: 9169 a33e 1b9c a33e 5504 a33e 56ab a33e
00000150: a171 a53e 7505 a73e 7ed9 a73e 03bd a73e
00000160: 3e3d a73e af88 a73e be9b a73e 4c4f a73e
00000170: 4ee8 a53e d070 a43e 8341 a33e 3ca9 a23e
00000180: c98b a13e 311d a23e f1d0 a23e 66aa a23e
00000190: 0d7b a13e dc13 a13e 2ab9 a13e aece a13e
000001a0: 9f52 a13e 69c3 a03e c7db a03e 8d46 a13e
000001b0: 6a91 a23e 3b8d a33e 55fc a33e 70dc a33e
000001c0: 006f a33e 648c a33e 3953 a33e e757 a33e
000001d0: 713a a23e 2415 a13e a936 a03e 7757 9f3e
000001e0: 6fb0 9f3e 6f06 a13e 8ff5 a03e 4ae1 9f3e
000001f0: bb62 9f3e 3f99 9e3e 7819 9e3e 3182 9d3e
00000200: 08e0 9c3e 0b04 9d3e 7fff 9c3e 2fb2 9e3e
00000210: 3df0 a03e 74c9 a23e 60bc a33e 52d6 a33e
00000220: b93f a43e 53ba a43e 16c1 a43e 60a3 a43e
00000230: d255 a43e 60ab a33e d398 a23e 25e6 a13e
00000240: 6314 a23e b39c a23e d7b7 a23e 3d02 a23e
00000250: 140b a13e 2f10 a03e 4897 9f3e 9cf6 9f3e
00000260: 9dfa 9f3e ba16 a03e 9dcb a03e 743d a13e
00000270: 948a a23e 178d a33e 4561 a43e 1a8d a43e
00000280: 4260 a53e 5cbb a63e cc0f a73e 2b68 a63e
00000290: 3a9f a53e d398 a43e 9445 a43e 1ba6 a33e
000002a0: de1d a23e 8be3 a03e 95c5 a03e caa7 a03e
000002b0: f952 a03e 889d a03e 7888 a03e b0a3 a03e
000002c0: a8d7 a03e 95da a13e b8f9 a23e 9fb9 a43e
000002d0: a68b a53e 2fa7 a53e 52f9 a43e 9976 a33e
000002e0: 269a a23e efe8 a13e acf4 a03e 52d9 9f3e
000002f0: d55a 9f3e 3729 9f3e 845f 9e3e 2acd 9c3e
00000300: bcc4 9b3e cc1b 9c3e 3834 9c3e 0f1c 9d3e
00000310: fa4b 9e3e e287 9f3e 60f6 a03e 7f7f a23e
00000320: 81f6 a33e d67f a43e a092 a43e 6cb0 a53e
00000330: 9f78 a63e e18d a63e 382c a63e eddd a43e
00000340: b6e7 a23e 96f3 a03e 26d2 9e3e b240 9d3e
00000350: 993a 9c3e b640 9b3e 6953 9b3e eaa3 9b3e
00000360: 31ec 9b3e 2d9a 9c3e 85e3 9d3e 4c2f 9f3e
00000370: 4aee 9f3e 765a a03e 43af a03e ce5d a13e
00000380: 2d52 a23e e0d7 a33e f0cd a53e 18e9 a63e
00000390: 38da a73e e2c6 a83e fd14 a93e 9e47 a83e
000003a0: 95ef a53e bddb a43e 2d88 a33e 8f37 a23e
000003b0: 2d20 a13e e146 a03e adfa 9e3e 71f0 9d3e
000003c0: b59c 9d3e 5eec 9d3e cf7b 9f3e fc66 a03e
000003d0: 6bcc a03e 1194 a03e ade0 a03e 73a3 a03e
000003e0: 81c4 a03e 6b12 a13e e88c a03e 90a6 a03e
000003f0: 7ea7 a13e 3f22 a33e d8f6 a33e 19dc a33e

tfl.pseudo_qconst i1 [720, 32]
-89 -109 -54 -32 -71 -127 -59 120
-67 31 -23 9 65 -35 -52 -14
75 9 30 5 21 1 -25 48
61 13 9 -7 -11 20 -119 15
-91 -75 -54 -17 -62 -127 -76 120
-63 -16 -27 -6 54 -61 -55 -2
69 -9 29 26 31 2 -27 26
79 4 10 -4 -8 16 -113 14
-92 -42 -55 -2 -41 -127 -82 111
-56 -57 -32 -19 42 -84 -55 15
65 -23 30 30 40 3 -28 -8
86 -4 11 12 -6 11 -94 13
-91 -13 -59 9 -9 -127 -74 97
-49 -87 -42 -25 32 -92 -52 31
62 -27 25 25 47 2 -25 -50
83 -12 9 34 -3 10 -66 10
-92 15 -65 10 23 -127 -52 81
-40 -109 -53 -27 21 -91 -51 44
65 -18 20 14 55 -2 -22 -87
73 -17 -3 57 3 13 -37 5
-92 41 -73 1 47 -127 -16 60
-29 -118 -60 -24 7 -82 -53 52
71 1 12 -1 67 -7 -22 -108
64 -23 -27 80 11 20 -5 0
-87 55 -82 -11 59 -127 22 43
-14 -108 -62 -19 -8 -66 -51 59
78 29 -8 -14 83 -10 -21 -109
52 -30 -54 98 20 29 26 -8
-79 48 -88 -11 57 -127 57 27
4 -77 -59 -10 -25 -50 -42 63
79 55 -42 -26 103 -10 -23 -85
33 -37 -76 108 30 40 54 -17
00000000: a793 cae0 b981 c578 bd1f e909 41dd ccf2
00000010: 4b09 1e05 1501 e730 3d0d 09f9 f514 890f
00000020: a5b5 caef c281 b478 c1f0 e5fa 36c3 c9fe
00000030: 45f7 1d1a 1f02 e51a 4f04 0afc f810 8f0e
00000040: a4d6 c9fe d781 ae6f c8c7 e0ed 2aac c90f
00000050: 41e9 1e1e 2803 e4f8 56fc 0b0c fa0b a20d
00000060: a5f3 c509 f781 b661 cfa9 d6e7 20a4 cc1f
00000070: 3ee5 1919 2f02 e7ce 53f4 0922 fd0a be0a
00000080: a40f bf0a 1781 cc51 d893 cbe5 15a5 cd2c
00000090: 41ee 140e 37fe eaa9 49ef fd39 030d db05
000000a0: a429 b701 2f81 f03c e38a c4e8 07ae cb34
000000b0: 4701 0cff 43f9 ea94 40e9 e550 0b14 fb00
000000c0: a937 aef5 3b81 162b f294 c2ed f8be cd3b
000000d0: 4e1d f8f2 53f6 eb93 34e2 ca62 141d 1af8
000000e0: b130 a8f5 3981 391b 04b3 c5f6 e7ce d63f
000000f0: 4f37 d6e6 67f6 e9ab 21db b46c 1e28 36ef

arith.constant18 f4 [256]
0.011786866 0.009023119 -0.019052168 0.0039919377 0.03284894 0.016929734 0.0075719305 -0.046912096
0.043909837 -0.012064798 -0.010607933 0.0020841968 -0.00023432742 0.054190807 0.0026868663 0.06724908
-0.029652894 -0.18729654 -0.024437927 0.005492848 0.04676609 -0.026610857 0.02576255 -0.09191569
0.044743452 -0.02185204 0.07788411 0.031698663 0.01131674 0.019128233 0.020874176 0.030571392
-0.004679656 -0.025882162 0.025237553 -0.008784704 -0.026781432 -0.0242185 0.086219504 0.018484138
-0.01936074 0.051175494 -0.013952076 -0.02292436 -0.020889545 0.0069388933 0.04462554 0.05473899
0.031202687 -0.042911034 0.02045811 -0.037928987 -0.014104558 0.018481415 0.02075599 -0.0042165513
-0.03368527 -0.007708172 0.031238124 0.024743017 0.07188878 0.029894369 0.02073766 0.03096018
1.0058488 1.0023844 1.010248 1.0295193 1.1367775 1.0195136 1.1156033 0.97796816
1.0616899 1.0333871 1.0174841 1.0171986 1.0233734 1.0493764 1.0626009 1.0521519
0.9864339 1.0606561 0.9957939 1.0147859 1.0457146 0.984699 1.0135217 1.0414768
1.0556844 0.9957692 1.0470022 1.0360671 0.9987329 1.0366429 1.0158048 1.0120351
1.0488359 0.98217326 1.0497189 1.053227 1.0041182 0.98252517 1.0578293 1.0283432
0.9820779 1.0602063 1.0006266 0.9924095 0.9684411 1.0131161 1.0546072 1.0236064
1.0355587 1.015661 1.0281215 0.9910874 1.0028346 1.0257329 1.0325669 1.0299888
1.0136812 1.011233 1.0268432 1.0328368 1.0751451 1.0592287 1.0127423 1.0441108
-0.00865213 -0.03258303 -0.012198905 0.022237895 -0.015007209 -0.06327393 0.011963732 0.00067100115
0.021079944 -0.014320348 -0.007463262 0.00048262454 0.0070953355 -0.031800453 -0.011527148 -0.039094128
-0.00033987933 -0.01600246 -0.00044564644 0.031960454 0.010846918 -0.038213395 -0.0013007418 0.018172806
0.0008923814 -0.012394109 0.02024244 -0.047180135 -0.011793882 0.00456163 -0.039839964 -0.016156215
-0.0035216443 -0.0083114505 0.010108259 -0.04281695 -0.024224108 0.016394192 -0.07295452 -0.00211393
-0.024634596 0.07469638 0.042642333 0.023274466 0.0034970643 -0.00016662231 -0.004251123 -0.018884005
0.0027363864 -0.026916537 0.0041133664 0.0049908813 0.053887326 0.014464668 0.0411348 -0.05105823
-0.031281948 0.04810419 0.011457359 0.056986015 0.007921735 -0.023845075 0.07483756 -0.020791337
0.021930492 -0.011768184 -0.018604316 0.013195779 0.0045530424 -0.0059765526 0.057519972 -0.037048645
0.025712132 -0.02734187 -0.012142346 -0.008664819 -0.011562604 0.045090623 -0.004009589 0.069804825
-0.032889403 -0.04681346 -0.016018447 -0.026840601 0.06646816 -0.026204705 0.032524414 -0.042299196
0.03875385 -0.023934284 0.035773866 0.0064670346 0.0008329886 -0.031808045 0.021942204 0.0021617347
0.03560628 -0.027997194 0.018148819 -0.009104188 -0.04263864 -0.03068031 0.033811208 0.022840686
-0.0059017106 0.014926828 -0.012957239 -0.014755588 -0.033217575 0.019056376 -0.012646351 0.065738454
0.010348148 -0.04127145 0.01961239 -0.025537241 -0.033734117 0.004599223 -0.0010579922 0.011372144
-0.021375792 -0.005299471 0.026678061 -0.0051834835 0.026447266 0.01529524 0.004713827 0.016173836
00000000: b31d 413c b4d5 133c 4b13 9cbc cdce 823b
00000010: 9c8c 063d 3ab0 8a3c f51d f83b e626 40bd
00000020: cdda 333d 6eab 45bc e5cc 2dbc 0597 083b
00000030: cab5 75b9 2ef7 5d3d 2316 303b e3b9 893d
00000040: a0ea f2bc aaca 3fbe 0c32 c8bc 59fd b33b
00000050: cd8d 3f3d 03ff d9bc fc0b d33c 4b3e bcbd
00000060: e944 373d 0d03 b3bc b481 9f3d 75d6 013d
00000070: d969 393c d0b2 9c3c 5200 ab3c db70 fa3c
00000080: cd57 99bb d406 d4bc fcbe ce3c b8ed 0fbc
00000090: bc64 dbbc e065 c6bc da93 b03d 0c6c 973c
000000a0: 6a9a 9ebc 659d 513d 4097 64bc decb bbbc
000000b0: 8d20 abbc a85f e33b 45c9 363d fe35 603d
000000c0: c79c ff3c 7bc3 2fbd c497 a73c 6d5b 1bbd
000000d0: ce16 67bc 5666 973c 7708 aa3c ff2a 8abb
000000e0: 91f9 09bd d594 fcbb 18e7 ff3c deb1 ca3c
000000f0: 6d3a 933d 09e5 f43c 06e2 a93c 34a0 fd3c
00000100: a7bf 803f 224e 803f ce4f 813f 4ac7 833f
00000110: ed81 913f 6c7f 823f 17cc 8e3f 1f5c 7a3f
00000120: 74e5 873f 0746 843f eb3c 823f 9033 823f
00000130: e6fd 823f f751 863f 4e03 883f eaac 863f
00000140: ef86 7c3f 94c3 873f 59ec 7e3f 81e4 813f
00000150: fad9 853f 3c15 7c3f 14bb 813f 1d4f 853f
00000160: ab20 873f bbea 7e3f 2b04 863f d99d 843f
00000170: f6ac 7f3f b7b0 843f e405 823f 5e8a 813f
00000180: 4140 863f b56f 7b3f 305d 863f 24d0 863f
00000190: f286 803f c586 7b3f f366 873f c0a0 833f
000001a0: 7569 7b3f d7b4 873f 8814 803f 8d0e 7e3f
000001b0: c2eb 773f caad 813f 5efd 863f 8905 833f
000001c0: 308d 843f 2e01 823f 7c99 833f e7b7 7d3f
000001d0: e25c 803f 374b 833f 272b 843f acd6 833f
000001e0: 4ec0 813f 1570 813f 996f 833f ff33 843f
000001f0: 5b9e 893f ce94 873f 8aa1 813f 6ca5 853f
00000200: aac1 0dbc c975 05bd ebdd 47bc 3f2c b63c
00000210: cce0 75bc c395 81bd 8703 443c 20e6 2f3a
00000220: d9af ac3c e59f 6abc 618e f4bb c508 fd39
00000230: fd7f e83b 3141 02bd 5ddc 3cbc 2a21 20bd
00000240: d531 b2b9 9717 83bc a7a5 e9b9 f7e8 023d
00000250: 46b7 313c a685 1cbd a77d aaba 23df 943c
00000260: b4ee 693a a910 4bbc 79d3 a53c f53f 41bd
00000270: 203b 41bc ba79 953b 3b2f 23bd 0a5a 84bc
00000280: 63cb 66bb c02c 08bc 1c9d 253c d360 2fbd
00000290: a371 c6bc 1d4d 863c 2e69 95bd dc89 0abb
000002a0: 7ece c9bc 6afa 983d baa9 2e3d 18aa be3c
000002b0: 012f 653b 56b7 2eb9 014d 8bbb a1b2 9abc
000002c0: f254 333b 1280 dcbc 6bc9 863b 8c8a a33b
000002d0: f5b8 5c3d 37fd 6c3c f77c 283d 6f22 51bd
000002e0: 8021 00bd e608 453d a6b7 3b3c 2b6a 693d
000002f0: 2aca 013c bf56 c3bc 6f44 993d 9852 aabc
00000300: 93a7 b33c 57cf 40bc 1468 98bc 1c33 583c
00000310: b031 953b f5d6 c3bb 109a 6b3d 52c0 17bd
00000320: 40a2 d23c 0ffc dfbc b1f0 46bc e3f6 0dbc
00000330: 1471 3dbc f2b0 383d df62 83bb d5f5 8e3d
00000340: 0ab7 06bd 78bf 3fbd 1e39 83bc d2e0 dbbc
00000350: 7520 883d 40ab d6bc 5238 053d ec41 2dbd
00000360: 5bbc 1e3d d511 c4bc 9e87 123d 6be9 d33b
00000370: eb5c 5a3a 2749 02bd 23c0 b33c e4ab 0d3b
00000380: e4d7 113d 5f5a e5bc d5ac 943c bb29 15bc
00000390: dba5 2ebd 4655 fbbc 9f7d 0a3d 641c bb3c
000003a0: 2363 c1bb a88f 743c 994a 54bc 6cc1 71bc
000003b0: 270f 08bd 1e1c 9c3c a432 4fbc e2a1 863d
000003c0: 478b 293c 410c 29bd 2aaa a03c 7a33 d1bc
000003d0: c92c 0abd 14b5 963b 54ac 8aba 3b52 3a3c
000003e0: 491c afbc 2fa7 adbb f38b da3c 36da a9bb
000003f0: f0a7 d83c e398 7a3c 7276 9a3b fe7e 843c

tfl.pseudo_qconst1 i1 [256, 7]
-60 -99 -67 22 127 -108 -127 62
-127 -54 109 112 -3 94 3 41
34 -66 127 -61 6 -106 -121 -117
-1 -19 81 127 42 9 78 114
-127 81 -21 -98 49 96 -69 -75
-127 8 40 -25 -57 127 101 -84
-1 -72 -5 -7 38 127 -3 -17
77 64 17 -6 127 -53 -41 -64
-55 -78 127 92 22 106 -55 117
84 -93 127 83 -36 5 -25 -127
116 -13 -67 -69 -119 -54 46 -127
40 -100 -33 84 127 -55 -4 -3
-100 86 9 90 -22 -46 127 77
70 86 -39 127 114 -68 -114 106
-20 80 25 51 127 -6 -7 -46
-46 -13 -46 -127 -100 -21 31 72
-31 -11 127 35 -76 14 -31 -12
54 92 -43 127 -53 118 -43 -40
127 41 90 33 48 -127 -11 -102
92 -26 13 24 127 30 121 75
7 -125 -127 -38 -13 16 -49 -56
65 -46 50 -7 127 -99 9 -52
50 -16 -127 -13 77 -104 22 85
-62 0 5 -127 6 -43 -10 14
60 127 -30 54 50 6 20 -45
113 -47 127 -38 -27 -2 16 127
96 -35 36 -82 127 120 -28 -2
117 -19 -7 109 -11 -11 -44 127
45 50 51 -26 127 12 16 -35
-31 27 38 39 85 -127 -42 -44
5 -127 67 31 11 -23 65 -113
127 16 10 -14 1 -43 59 42
00000000: c49d bd16 7f94 813e 81ca 6d70 fd5e 0329
00000010: 22be 7fc3 0696 878b ffed 517f 2a09 4e72
00000020: 8151 eb9e 3160 bbb5 8108 28e7 c77f 65ac
00000030: ffb8 fbf9 267f fdef 4d40 11fa 7fcb d7c0
00000040: c9b2 7f5c 166a c975 54a3 7f53 dc05 e781
00000050: 74f3 bdbb 89ca 2e81 289c df54 7fc9 fcfd
00000060: 9c56 095a ead2 7f4d 4656 d97f 72bc 8e6a
00000070: ec50 1933 7ffa f9d2 d2f3 d281 9ceb 1f48
00000080: e1f5 7f23 b40e e1f4 365c d57f cb76 d5d8
00000090: 7f29 5a21 3081 f59a 5ce6 0d18 7f1e 794b
000000a0: 0783 81da f310 cfc8 41d2 32f9 7f9d 09cc
000000b0: 32f0 81f3 4d98 1655 c200 0581 06d5 f60e
000000c0: 3c7f e236 3206 14d3 71d1 7fda e5fe 107f
000000d0: 60dd 24ae 7f78 e4fe 75ed f96d f5f5 d47f
000000e0: 2d32 33e6 7f0c 10dd e11b 2627 5581 d6d4
000000f0: 0581 431f 0be9 418f 7f10 0af2 01d5 3b2a

tfl.pseudo_qconst2 i1 [256, 64]
-20 54 6 -3 -73 -15 44 -6
-39 33 26 -22 61 61 -8 9
-47 45 -11 -20 11 -3 -38 127
16 13 0 -31 -15 -34 11 20
10 45 -44 -7 25 16 -17 20
1 -15 -9 -62 20 28 34 10
5 11 42 -80 70 14 -15 -16
-20 18 -58 1 53 -51 14 -53
3 -7 -30 -17 24 -14 -67 -31
-58 46 -32 -37 53 58 -10 -71
71 64 -31 -1 2 19 34 -2
-36 5 53 -42 127 -24 110 4
-67 8 61 -87 72 -35 -60 17
-48 -35 42 -46 64 55 10 31
-10 -96 -74 -9 -34 -76 -44 37
-82 29 75 -48 12 4 9 27
-106 -10 11 67 -11 58 -5 38
127 25 14 106 -28 -19 -20 -50
-1 -40 -12 -49 -44 -17 -81 20
-8 26 4 0 -50 -63 -39 83
2 6 -46 58 33 16 -25 -70
1 -66 -77 10 5 -84 -80 12
27 -8 -67 -9 28 32 0 -4
-28 8 36 -9 -67 18 -63 42
-30 -15 57 -4 -71 -9 40 -31
9 45 -28 54 -66 25 -24 35
-26 74 5 3 41 33 -7 118
-48 -21 -21 -2 7 -1 -70 127
-25 -17 -19 -61 -1 -1 -18 -13
30 11 -36 -18 32 1 -9 -15
43 -89 -9 16 20 8 -65 -35
18 -28 -42 -54 -6 -33 -14 -9
00000000: ec36 06fd b7f1 2cfa d921 1aea 3d3d f809
00000010: d12d f5ec 0bfd da7f 100d 00e1 f1de 0b14
00000020: 0a2d d4f9 1910 ef14 01f1 f7c2 141c 220a
00000030: 050b 2ab0 460e f1f0 ec12 c601 35cd 0ecb
00000040: 03f9 e2ef 18f2 bde1 c62e e0db 353a f6b9
00000050: 4740 e1ff 0213 22fe dc05 35d6 7fe8 6e04
00000060: bd08 3da9 48dd c411 d0dd 2ad2 4037 0a1f
00000070: f6a0 b6f7 deb4 d425 ae1d 4bd0 0c04 091b
00000080: 96f6 0b43 f53a fb26 7f19 0e6a e4ed ecce
00000090: ffd8 f4cf d4ef af14 f81a 0400 cec1 d953
000000a0: 0206 d23a 2110 e7ba 01be b30a 05ac b00c
000000b0: 1bf8 bdf7 1c20 00fc e408 24f7 bd12 c12a
000000c0: e2f1 39fc b9f7 28e1 092d e436 be19 e823
000000d0: e64a 0503 2921 f976 d0eb ebfe 07ff ba7f
000000e0: e7ef edc3 ffff eef3 1e0b dcee 2001 f7f1
000000f0: 2ba7 f710 1408 bfdd 12e4 d6ca fadf f2f7

arith.constant22 f4 [128]
-0.015467993 -0.049486738 -0.11400928 -9.159011e-05 -0.11786949 -0.24240892 0.03196743 -0.09593572
-0.024487702 0.09955088 0.019835075 0.026378533 -0.061538663 -0.019225443 -0.09639919 -0.07154565
0.111067615 -0.0065723876 0.021754632 -0.02139879 -0.07309594 -0.034803577 -6.5111875e-05 0.04861605
-0.02202127 -0.089253455 -0.12571752 0.017447058 -0.0038909449 0.024680434 0.030627701 0.12341248
1.144852 1.1077688 1.004578 1.0577142 1.030651 1.2846289 1.0793881 1.0332875
1.2615143 1.0569249 1.0938699 1.1013161 1.1388156 1.0322039 1.1722889 1.0840364
1.1977836 1.0579921 1.0721494 1.0736177 1.1437306 1.0626311 1.1483854 1.0403204
1.1463019 1.1172609 0.97094625 1.0823917 1.0498971 1.1251698 1.1019464 1.2292356
-0.021915736 0.035208464 0.0025446466 0.007527636 -0.04192089 0.0273917 -0.04144195 -0.022926958
0.03398982 0.010764711 0.052762635 -0.011583613 -0.013106413 0.05728813 -0.026925132 -0.011902259
0.03779558 0.04357343 -0.024259565 -0.026938966 -0.052556947 -0.03340053 0.03806503 -0.028296942
0.0062109935 -0.012100768 0.065317065 -0.05031338 0.0017333677 -0.03922006 0.051264137 0.1144308
-0.020312656 0.021688333 0.0023177005 -0.011467063 0.047327816 0.1371033 -0.017356936 0.15894748
-0.082410045 -0.008757261 0.040726617 -0.054134373 0.06856292 -0.028532837 0.035243947 0.011226394
-0.099666245 -0.025337858 0.02324472 -0.004640417 0.055270817 0.105716504 -0.10770601 0.07232945
0.029857447 0.102333404 0.025261046 0.042035032 0.1272163 -0.057666928 0.07043883 -0.13363767
00000000: 776d 7dbc 9bb2 4abd b37d e9bd 1114 c0b8
00000010: 8f65 f1bd 0b3a 78be 48f0 023d f279 c4bd
00000020: 6f9a c8bc 55e1 cb3d 2b7d a23c cb17 d83c
00000030: f70f 7cbd ad7e 9dbc f06c c5bd 8786 92bd
00000040: 6b77 e33d 2f5d d7bb c536 b23c 844c afbc
00000050: 53b3 95bd 328e 0ebd ac8c 88b8 a021 473d
00000060: f365 b4bc 84ca b6bd 18bc 00be 22ed 8e3c
00000070: 39ff 7ebb 9f2e ca3c f2e6 fa3c afbf fc3d
00000080: 838a 923f 5ecb 8d3f 0396 803f 2e63 873f
00000090: 5fec 833f b86e a43f 6429 8a3f c442 843f
000000a0: 4d79 a13f 5149 873f ee03 8c3f edf7 8c3f
000000b0: b6c4 913f 421f 843f 900d 963f b4c1 8a3f
000000c0: f950 993f 496c 873f 313c 893f 4e6c 893f
000000d0: c465 923f 4c04 883f 4bfe 923f 3829 853f
000000e0: 05ba 923f 6802 8f3f ef8f 783f d08b 8a3f
000000f0: 0763 863f 9005 903f 940c 8d3f 9857 9d3f
00000100: a188 b3bc c036 103d 16c4 263b 63aa f63b
00000110: 3db5 2bbd 8f64 e03c 09bf 29bd 51d1 bbbc
00000120: e938 0b3d 785e 303c a21d 583d 32c9 3dbc
00000130: 48bc 56bc f5a6 6a3d 1892 dcbc b101 43bc
00000140: 8acf 1a3d 0e7a 323d ffbb c6bc 1baf dcbc
00000150: f445 57bd ffce 08bd 14ea 1b3d fdce e7bc
00000160: 9785 cb3b 4d42 46bc f4c4 853d 6715 4ebd
00000170: 2b32 e33a 37a5 20bd 58fa 513d b25a ea3d
00000180: ba66 a6bc bbab b13c 90e4 173b 59e0 3bbc
00000190: d0da 413d cf64 0c3e 2230 8ebc 21c3 223e
000001a0: 99c6 a8bd 9d7a 0fbc f4d0 263d 01bc 5dbd
000001b0: b76a 8c3d b2bd e9bc f55b 103d e9ee 373c
000001c0: d11d ccbd 5791 cfbc b66b be3c a40e 98bb
000001d0: a763 623d e581 d83d f894 dcbd 7621 943d
000001e0: 9b97 f43c 2d94 d13d 41f0 ce3c ed2c 2c3d
000001f0: fd44 023e 2834 6cbd 3c42 903d 50d8 08be

tfl.pseudo_qconst3 i1 [128, 64]
39 32 -26 37 50 -2 -36 -6
-26 -87 -19 -28 -36 9 -92 28
-30 -12 46 104 -18 -11 13 -43
37 53 77 -29 76 48 -52 53
-12 -68 49 -53 -7 9 -66 73
-30 23 27 -13 -26 -43 45 -81
9 -40 -65 5 -56 20 30 -38
-127 -7 -60 -29 25 -37 23 -35
14 -17 21 -55 -3 -18 114 14
-12 -54 -43 -33 -81 57 39 -15
-42 75 51 -26 62 70 -14 85
40 9 22 85 -53 -39 -49 10
-88 -37 -23 -77 14 47 -32 19
-18 67 14 -101 -12 -46 -65 -84
67 45 35 -71 127 26 32 -32
-38 32 2 52 -79 62 16 17
-24 127 43 -30 0 10 21 29
0 -21 -25 -19 32 -36 2 17
-31 17 -38 15 -8 30 -29 -33
30 20 -22 -6 -11 -35 -23 16
-27 26 -34 8 25 15 29 -32
-17 41 -2 17 29 -40 -19 1
16 3 27 56 -14 39 35 -12
25 -12 -40 25 -23 41 15 -26
44 17 35 -18 -127 26 -10 -110
58 62 -31 5 20 115 17 -100
18 -31 47 51 17 -79 80 58
-89 5 28 -9 87 -24 63 -70
7 40 8 -96 39 -16 -30 -15
6 -26 -60 -10 57 106 -40 24
-3 -92 -47 67 -48 -35 -108 -53
-66 54 63 -5 22 4 36 2
00000000: 2720 e625 32fe dcfa e6a9 ede4 dc09 a41c
00000010: e2f4 2e68 eef5 0dd5 2535 4de3 4c30 cc35
00000020: f4bc 31cb f909 be49 e217 1bf3 e6d5 2daf
00000030: 09d8 bf05 c814 1eda 81f9 c4e3 19db 17dd
00000040: 0eef 15c9 fdee 720e f4ca d5df af39 27f1
00000050: d64b 33e6 3e46 f255 2809 1655 cbd9 cf0a
00000060: a8db e9b3 0e2f e013 ee43 0e9b f4d2 bfac
00000070: 432d 23b9 7f1a 20e0 da20 0234 b13e 1011
00000080: e87f 2be2 000a 151d 00eb e7ed 20dc 0211
00000090: e111 da0f f81e e3df 1e14 eafa f5dd e910
000000a0: e51a de08 190f 1de0 ef29 fe11 1dd8 ed01
000000b0: 1003 1b38 f227 23f4 19f4 d819 e929 0fe6
000000c0: 2c11 23ee 811a f692 3a3e e105 1473 119c
000000d0: 12e1 2f33 11b1 503a a705 1cf7 57e8 3fba
000000e0: 0728 08a0 27f0 e2f1 06e6 c4f6 396a d818
000000f0: fda4 d143 d0dd 94cb be36 3ffb 1604 2402

tfl.pseudo_qconst4 i1 [128, 32]
19 75 25 -25 -41 93 50 26
33 -39 -83 -9 82 -36 42 9
-103 -70 23 -32 -81 -17 -74 -127
37 -29 7 47 36 -13 63 -17
-18 55 -14 -20 -8 110 43 -10
16 48 23 -46 10 5 39 -17
5 -18 8 -34 -81 -13 -5 -6
35 -16 -3 -47 28 0 127 -8
54 -6 -41 -58 72 17 -46 0
-34 -64 1 2 6 29 2 34
13 127 -1 -82 -16 -24 9 -4
48 22 -24 3 10 -30 2 10
94 45 -5 -35 -127 75 -49 79
-5 60 74 82 47 15 -34 -81
-4 -6 73 -63 -84 -42 59 50
33 -21 60 -36 -59 11 -50 48
46 54 30 -42 -30 -37 -11 -81
-46 -39 56 -37 -52 47 35 77
-39 16 -127 56 -8 -44 34 -111
-6 -7 56 34 100 -50 54 -66
50 4 13 41 -20 28 -47 5
-6 -22 41 4 62 16 -43 9
-70 -27 6 -19 0 -45 -79 -68
98 -63 44 23 -5 -6 127 -99
-21 -38 84 34 -37 91 18 35
2 -18 15 20 -77 126 49 47
-20 115 -8 93 23 62 -29 9
-64 -5 -38 79 127 63 26 -85
43 -4 -95 78 -2 -59 8 -100
-50 2 0 23 -111 37 -69 -16
-1 17 39 -17 80 -2 -52 -32
127 -2 -43 32 58 -66 14 23
00000000: 134b 19e7 d75d 321a 21d9 adf7 52dc 2a09
00000010: 99ba 17e0 afef b681 25e3 072f 24f3 3fef
00000020: ee37 f2ec f86e 2bf6 1030 17d2 0a05 27ef
00000030: 05ee 08de aff3 fbfa 23f0 fdd1 1c00 7ff8
00000040: 36fa d7c6 4811 d200 dec0 0102 061d 0222
00000050: 0d7f ffae f0e8 09fc 3016 e803 0ae2 020a
00000060: 5e2d fbdd 814b cf4f fb3c 4a52 2f0f deaf
00000070: fcfa 49c1 acd6 3b32 21eb 3cdc c50b ce30
00000080: 2e36 1ed6 e2db f5af d2d9 38db cc2f 234d
00000090: d910 8138 f8d4 2291 faf9 3822 64ce 36be
000000a0: 3204 0d29 ec1c d105 faea 2904 3e10 d509
000000b0: bae5 06ed 00d3 b1bc 62c1 2c17 fbfa 7f9d
000000c0: ebda 5422 db5b 1223 02ee 0f14 b37e 312f
000000d0: ec73 f85d 173e e309 c0fb da4f 7f3f 1aab
000000e0: 2bfc a14e fec5 089c ce02 0017 9125 bbf0
000000f0: ff11 27ef 50fe cce0 7ffe d520 3abe 0e17
