Models_Convert_tf/SchoolE_tflite/SchoolE_lstm.tflite (tflite, 130296 bytes, 8 tensors)

arith.constant13 f4 [1440]
0.2580126 0.15740603 0.25769022 0.15931632 0.2609235 0.16215152 0.26194066 0.16240843
0.26103052 0.16210926 0.2602392 0.16096151 0.25912446 0.16156188 0.25839922 0.16297035
0.25932714 0.16392952 0.2616028 0.1639996 0.26144096 0.16329357 0.26081306 0.16353637
0.2609348 0.16299559 0.26056847 0.16425225 0.2605694 0.16587014 0.2589491 0.16407058
0.25721446 0.16182761 0.2556941 0.16161624 0.2540878 0.16199964 0.25226256 0.16213754
0.25121936 0.1609862 0.25491586 0.1613981 0.25606832 0.16262121 0.25797603 0.16483365
0.25989866 0.1671143 0.25950146 0.16939697 0.26216456 0.17073266 0.2625574 0.17033811
0.26184407 0.16795713 0.26106524 0.16702238 0.25912946 0.16512655 0.25714415 0.161837
0.25785977 0.1600441 0.260912 0.15974231 0.2624119 0.15942472 0.26192546 0.15988444
0.26069108 0.16089572 0.2585664 0.16283557 0.25749582 0.16572765 0.25626782 0.16624025
0.25387403 0.16539851 0.25183624 0.16434003 0.2499406 0.16553113 0.24927965 0.16650608
0.24967685 0.16614184 0.25403032 0.16452113 0.25456265 0.1633404 0.2554663 0.16460028
0.25613612 0.16695324 0.2557074 0.16932294 0.2581607 0.17143966 0.25881913 0.171556
0.25853914 0.17165177 0.2586978 0.17199081 0.25815085 0.17082156 0.2564856 0.16872124
0.25669637 0.1668825 0.25923797 0.16666833 0.25899267 0.16525665 0.25785992 0.16386701
0.25576156 0.16291234 0.25429004 0.1634518 0.2542295 0.16477193 0.2538332 0.1642358
0.25224334 0.16481496 0.2505762 0.16608475 0.24923079 0.16754042 0.24826354 0.16796349
0.24749921 0.1667071 0.25191376 0.16609997 0.25382984 0.16762158 0.2550158 0.16704398
0.2552096 0.1653376 0.2550742 0.16516393 0.258971 0.16563833 0.2615376 0.16447105
0.26241267 0.16377684 0.26232937 0.16409594 0.26001102 0.16370244 0.25671872 0.16461505
0.25584218 0.16666536 0.2581302 0.1688182 0.25964794 0.16927049 0.25946423 0.16915773
0.2578917 0.16765104 0.25698698 0.16662738 0.25726914 0.16542621 0.25687584 0.16154121
0.2558564 0.1593235 0.25478563 0.15978876 0.25471523 0.16054337 0.25426704 0.16064002
0.2533092 0.16014075 0.25653505 0.16240177 0.25729042 0.16504027 0.25666627 0.16492534
0.25550056 0.16435541 0.25351527 0.16374128 0.2551185 0.16369787 0.2558383 0.16421796
0.25513983 0.16347522 0.25347447 0.1625375 0.25126317 0.16392611 0.24984051 0.16523284
0.25100592 0.16622567 0.25395986 0.16791354 0.2556845 0.1684018 0.25592777 0.16830976
0.25577724 0.16670813 0.25554696 0.16519833 0.25583363 0.16400027 0.25625598 0.16152227
0.25574884 0.15960383 0.25551808 0.15899564 0.25443208 0.15928255 0.25299218 0.15907331
0.25169587 0.15837356 0.25492162 0.1596806 0.256457 0.16171283 0.25677904 0.16177775
0.2569022 0.16309589 0.25663462 0.16408958 0.25952274 0.1663329 0.25988206 0.1674905
0.25848117 0.16810656 0.25705355 0.16906099 0.25515768 0.1704768 0.25413176 0.17155008
00000000: 3a1a 843e 0c2f 213e f9ef 833e d123 233e
00000010: c497 853e 0c0b 263e 161d 863e 654e 263e
00000020: cba5 853e f8ff 253e 133e 853e 18d3 243e
00000030: f6ab 843e 7a70 253e e74c 843e b3e1 263e
00000040: 87c6 843e 24dd 273e cdf0 853e 83ef 273e
00000050: 97db 853e 6e36 273e 4a89 853e 1476 273e
00000060: 3f99 853e 51e8 263e 3b69 853e be31 283e
00000070: 5a69 853e ddd9 293e fa94 843e 1e02 283e
00000080: 9db1 833e 23b6 253e 56ea 823e ba7e 253e
00000090: cc17 823e 3ce3 253e 8f28 813e 6207 263e
000000a0: d39f 803e 91d9 243e 5584 823e 8b45 253e
000000b0: 631b 833e 2d86 263e 6f15 843e 27ca 283e
000000c0: 7011 853e 0320 2b3e 60dd 843e 6676 2d3e
000000d0: 6f3a 863e 8bd4 2e3e ec6d 863e 1d6d 2e3e
000000e0: 6d10 863e f4fc 2b3e 58aa 853e ea07 2b3e
000000f0: 9eac 843e ef16 293e 66a8 833e 99b8 253e
00000100: 3206 843e 9ae2 233e 4296 853e 7d93 233e
00000110: da5a 863e 3c40 233e 181b 863e bfb8 233e
00000120: 4d79 853e d9c1 243e d162 843e 5ebe 263e
00000130: 7ed6 833e 82b4 293e 8935 833e e23a 2a3e
00000140: c7fb 813e 3a5e 293e aef0 803e c148 283e
00000150: 6ef0 7f3e fe80 293e 2a43 7f3e 9280 2a3e
00000160: 4aab 7f3e 1621 2a3e 4310 823e 3a78 283e
00000170: 0956 823e b542 273e 7bcc 823e fa8c 283e
00000180: 4624 833e caf5 2a3e 15ec 823e fe62 2d3e
00000190: a42d 843e e18d 2f3e f183 843e 60ac 2f3e
000001a0: 3e5f 843e 7bc5 2f3e 0a74 843e 5c1e 303e
000001b0: 592c 843e d9eb 2e3e 1552 833e 43c5 2c3e
000001c0: b56d 833e 3fe3 2a3e d7ba 843e 1aab 2a3e
000001d0: b09a 843e 0a39 293e 3706 843e c1cc 273e
000001e0: 2ef3 823e 7ed2 263e 4e32 823e e95f 273e
000001f0: 5e2a 823e f9b9 283e 6df6 813e 6e2d 283e
00000200: 0a26 813e 41c5 283e 864b 803e 1f12 2a3e
00000210: 5b36 7f3e b78f 2b3e cc38 7e3e 9ffe 2b3e
00000220: 6f70 7d3e 44b5 2a3e d7fa 803e 1c16 2a3e
00000230: fcf5 813e fea4 2b3e 6e91 823e 940d 2b3e
00000240: d5aa 823e 434e 293e 1699 823e bc20 293e
00000250: d997 843e 189d 293e 42e8 853e 196b 283e
00000260: f45a 863e 1eb5 273e 0950 863e c408 283e
00000270: 2a20 853e 9da1 273e a370 833e d990 283e
00000280: bffd 823e 53aa 2a3e a429 843e aede 2c3e
00000290: 93f0 843e 3e55 2d3e 7fd8 843e af37 2d3e
000002a0: 620a 843e b7ac 2b3e cc93 833e 5ea0 2a3e
000002b0: c8b8 833e 7d65 293e 3b85 833e 0f6b 253e
000002c0: 9cff 823e b325 233e 4373 823e aa9f 233e
000002d0: 096a 823e 7b65 243e 4a2f 823e d17e 243e
000002e0: beb1 813e f0fb 233e 9058 833e a64c 263e
000002f0: 92bb 833e 5100 293e c369 833e 30e2 283e
00000300: f8d0 823e c94c 283e c1cc 813e cbab 273e
00000310: e49e 823e 6aa0 273e 3dfd 823e c128 283e
00000320: b0a1 823e 0c66 273e 68c7 813e 3b70 263e
00000330: 91a5 803e 3fdc 273e 31d6 7f3e cc32 293e
00000340: d983 803e 1037 2a3e 0707 823e 87f1 2b3e
00000350: 14e9 823e 8571 2c3e f708 833e 6559 2c3e
00000360: 3cf5 823e 89b5 2a3e 0dd7 823e c029 293e
00000370: a0fc 823e b0ef 273e fc33 833e 1866 253e
00000380: 83f1 823e 306f 233e 44d3 823e c1cf 223e
00000390: ec44 823e f71a 233e 3188 813e 1de4 223e
000003a0: 48de 803e ae2c 223e 1685 823e 5083 233e
000003b0: 554e 833e 0c98 253e 8b78 833e 11a9 253e
000003c0: af88 833e 9c02 273e 9d65 833e 1907 283e
000003d0: 2ae0 843e 2c53 2a3e 430f 853e a182 2b3e
000003e0: a557 843e 2024 2c3e 869c 833e 531e 2d3e
000003f0: 07a4 823e 7891 2e3e 8f1d 823e d3aa 2f3e

tfl.pseudo_qconst i1 [1440, 32]
12 14 -24 84 -83 -12 29 61
6 82 38 -90 -24 -23 -1 -30
47 -19 -56 7 -10 -33 -127 -44
40 40 37 36 -10 -54 74 -6
25 -9 -21 -123 -31 -24 15 3
-19 2 9 -102 -30 -21 -75 -7
33 80 -127 11 19 38 -31 -14
19 25 1 35 14 12 8 8
37 -2 -12 74 -77 -30 36 65
5 51 32 -106 -38 -41 34 -39
35 -3 -78 1 16 -22 -127 -33
40 62 24 38 -42 -85 51 17
15 -1 -16 -108 -25 -28 1 -4
-9 -23 4 -100 -26 -24 -59 -13
22 64 -127 4 11 32 -5 -7
15 24 -7 17 -3 17 11 1
61 5 3 64 -70 -41 49 65
4 17 24 -127 -50 -64 83 -57
26 23 -107 -10 20 -17 -107 -23
44 92 4 35 -96 -124 25 43
0 12 -4 -103 -23 -30 -14 -10
-2 -38 0 -105 -25 -22 -54 -18
15 56 -127 -4 -2 30 14 -7
16 28 -19 -6 -14 28 12 -3
61 30 35 36 -42 -38 47 38
3 -20 8 -108 -44 -74 110 -55
10 48 -103 -27 -8 -6 -58 -14
37 105 -17 16 -127 -125 -8 59
-13 28 17 -104 -24 -34 -33 -12
4 -47 -3 -118 -25 -16 -56 -22
5 52 -127 -11 -13 35 26 -5
25 35 -33 -41 -15 46 13 -5
00000000: 0c0e e854 adf4 1d3d 0652 26a6 e8e9 ffe2
00000010: 2fed c807 f6df 81d4 2828 2524 f6ca 4afa
00000020: 19f7 eb85 e1e8 0f03 ed02 099a e2eb b5f9
00000030: 2150 810b 1326 e1f2 1319 0123 0e0c 0808
00000040: 25fe f44a b3e2 2441 0533 2096 dad7 22d9
00000050: 23fd b201 10ea 81df 283e 1826 d6ab 3311
00000060: 0fff f094 e7e4 01fc f7e9 049c e6e8 c5f3
00000070: 1640 8104 0b20 fbf9 0f18 f911 fd11 0b01
00000080: 3d05 0340 bad7 3141 0411 1881 cec0 53c7
00000090: 1a17 95f6 14ef 95e9 2c5c 0423 a084 192b
000000a0: 000c fc99 e9e2 f2f6 feda 0097 e7ea caee
000000b0: 0f38 81fc fe1e 0ef9 101c edfa f21c 0cfd
000000c0: 3d1e 2324 d6da 2f26 03ec 0894 d4b6 6ec9
000000d0: 0a30 99e5 f8fa c6f2 2569 ef10 8183 f83b
000000e0: f31c 1198 e8de dff4 04d1 fd8a e7f0 c8ea
000000f0: 0534 81f5 f323 1afb 1923 dfd7 f12e 0dfb

arith.constant19 f4 [256]
-0.045775153 -0.19884415 -0.08515712 -0.08322525 -0.053582244 -0.11344583 -0.092560776 -0.08519223
-0.11863989 -0.026846865 -0.12566896 -0.16200356 -0.037466057 -0.062228024 -0.0978581 -0.08397005
-0.041421946 -0.069770575 -0.12850249 -0.11235313 -0.03965677 -0.054931298 -0.050340243 -0.11045557
-0.095715895 -0.1431914 -0.11047544 -0.06485781 -0.12491156 -0.07409477 -0.1938884 -0.024589682
-0.09043312 -0.12073023 0.031058835 -0.065129004 -0.08007202 -0.12920463 -0.049093567 -0.1490635
-0.09647487 -0.112476364 -0.0993819 -0.036459878 -0.06481746 -0.04448406 -0.03186883 -0.040265873
-0.110381655 -0.05595586 -0.14286342 -0.010964464 -0.10904134 -0.07082095 -0.076787435 -0.111277305
-0.083544284 -0.13480562 -0.15824512 -0.0965782 0.15906732 -0.077430345 0.041070785 -0.15429394
0.9963755 0.94736785 0.9817188 1.001906 1.0157243 1.0117127 1.0220121 1.0093323
1.0122648 1.083682 1.0219686 0.9420137 1.1784362 1.0366111 1.0071609 1.0113299
1.0550107 0.9908716 0.9505566 0.99693215 1.0524228 1.0377322 0.9995977 0.9253118
0.9913646 0.9852877 0.9842324 1.0387694 0.974138 1.075416 1.0636109 1.0813693
0.9906593 1.1008679 1.1745666 0.9978383 0.9773696 0.99714637 1.0390024 0.93490124
1.0436859 1.0009665 1.017231 0.9606658 1.014178 1.0367755 1.0966319 1.016835
0.96138126 1.0344929 0.9546949 1.0135739 1.0007282 0.97097987 1.0137545 0.9934884
1.018068 0.95485044 0.95624197 1.0059934 1.212445 1.016832 1.1218382 0.9325282
0.045224935 0.03625121 0.016852733 -0.03624167 0.050493173 0.025648361 -0.034964856 0.057701055
0.09536329 0.03685739 -0.067855455 0.048710138 0.048182227 0.05717832 -0.067402035 -0.07941351
0.034834784 -0.057354424 0.021289656 -0.01625736 0.05010225 0.041477606 0.011156117 -0.037001934
-0.08795134 -0.07329757 0.012364552 0.058066238 -0.058550656 0.019990366 -0.03500197 0.052206222
-0.009884104 0.0037739591 -0.014482424 -0.008191238 0.009483486 0.07351051 -0.042367116 0.048615176
0.017877018 -0.085169375 -0.07533387 0.059725244 -0.042145398 0.033217702 0.020025814 0.027877247
-0.01676376 -0.005123755 -0.07242588 0.057802428 -0.037008375 0.061259322 0.010340241 -0.048086397
0.074086316 -0.055500824 -0.018229255 0.10661674 -0.04518057 -0.01305974 -0.014972074 -0.05136488
-0.05146308 -0.1749079 -0.12050662 -0.06183555 -0.063503765 -0.101143 -0.08235446 -0.104417585
-0.1302934 -0.04029901 -0.1456303 -0.14609538 -0.039513726 -0.071082726 -0.10252312 -0.06485851
-0.017932508 -0.10613491 -0.1299736 -0.08138121 -0.09346588 -0.07778119 -0.033828184 -0.103375316
-0.10144092 -0.119189344 -0.10647968 -0.075885616 -0.13773726 -0.08879582 -0.10047013 -0.120956585
-0.10077281 -0.120751366 -0.11226903 -0.062590286 -0.10343672 -0.10066229 -0.06842093 -0.14857852
-0.084020674 -0.09805891 -0.07577979 -0.022423545 -0.092445105 -0.050426133 -0.04018624 -0.1096874
-0.10934191 -0.07988326 -0.1376915 -0.002168861 -0.111844935 -0.07561814 -0.077285975 -0.09969098
-0.05905655 -0.079502486 -0.151877 -0.0674232 -0.07818016 -0.094003715 -0.02661945 -0.14235966
00000000: ba7e 3bbd cd9d 4bbe db66 aebd 0072 aabd
00000010: 0e79 5bbd 4a56 e8bd 8190 bdbd 4479 aebd
00000020: 78f9 f2bd f5ed dbbc 5daf 00be 43e4 25be
00000030: 0276 19bd d0e2 7ebd d469 c8bd 7df8 abbd
00000040: 0faa 29bd e0e3 8ebd 2896 03be 6619 e6bd
00000050: 236f 22bd a4ff 60bd 9231 4ebd 8836 e2bd
00000060: b206 c4bd c4a0 12be f340 e2bd 2cd4 84bd
00000070: a2d1 ffbd 00bf 97bd ae8a 46be 4d70 c9bc
00000080: 0035 b9bd 6941 f7bd 196f fe3c 5b62 85bd
00000090: cdfc a3bd 384e 04be 5616 49bd 1aa4 18be
000000a0: 9e94 c5bd 025a e6bd bd88 cbbd f456 15bd
000000b0: 04bf 84bd eb34 36bd e488 02bd d4ed 24bd
000000c0: c70f e2bd f931 65bd ca4a 12be 4ca4 33bc
000000d0: 1151 dfbd 930a 91bd bb42 9dbd 5be5 e3bd
000000e0: 4419 abbd 7c0a 0abe 020b 22be cbca c5bd
000000f0: 8be2 223e cd93 9ebd d739 283d 3bff 1dbe
00000100: 7712 7f3f b386 723f ec51 7b3f 753e 803f
00000110: 4103 823f cd7f 813f 4bd1 823f cd31 813f
00000120: e591 813f 17b6 8a3f decf 823f cf27 713f
00000130: ffd6 963f acaf 843f a6ea 803f 4273 813f
00000140: 970a 873f c3a9 7d3f ad57 733f f236 7f3f
00000150: cab5 863f 69d4 843f a3e5 7f3f 3ce1 6c3f
00000160: 12ca 7d3f d13b 7c3f a8f6 7b3f 65f6 843f
00000170: 1c61 793f 3ba7 893f 6724 883f 4f6a 8a3f
00000180: d99b 7d3f 3de9 8c3f 3358 963f 5572 7f3f
00000190: e534 7a3f fc44 7f3f 08fe 843f b055 6f3f
000001a0: 8097 853f ac1f 803f a034 823f 32ee 753f
000001b0: 96d0 813f 0fb5 843f 6f5e 8c3f a627 823f
000001c0: 151d 763f 436a 843f e366 743f cabc 813f
000001d0: dd17 803f 2392 783f b5c2 813f 4155 7e3f
000001e0: 0d50 823f 1471 743f 46cc 743f 64c4 803f
000001f0: 6631 9b3f 8d27 823f 6598 8f3f 2bba 6e3f
00000200: c83d 393d 267c 143d be0e 8a3c 2572 14bd
00000210: eed1 4e3d 831c d23c 4f37 0fbd f157 6c3d
00000220: d44d c33d c6f7 163d cdf7 8abd 4884 473d
00000230: ba5a 453d d033 6a3d 140a 8abd 8da3 a2bd
00000240: ebae 0e3d 79ec 6abd a567 ae3c 282e 85bc
00000250: 0438 4d3d 6ce4 293d 25c8 363c 578f 17bd
00000260: d51f b4bd 091d 96bd b194 4a3c ddd6 6d3d
00000270: d0d2 6fbd d6c2 a33c 3a5e 0fbd 31d6 553d
00000280: f0f0 21bc 8754 773b b047 6dbc 8b34 06bc
00000290: a060 1b3c ae8c 963d 2489 2dbd b520 473d
000002a0: d372 923c 486d aebd a548 9abd 75a2 743d
000002b0: a7a0 2cbd 490f 083d 2d0d a43c d35e e43c
000002c0: 2754 89bc 2ce5 a7bb 0554 94bd 3dc2 6c3d
000002d0: 1896 17bd 0eeb 7a3d 1d6a 293c 3ef6 44bd
000002e0: 91ba 973d d554 63bd 8555 95bc e159 da3d
000002f0: 430f 39bd 85f8 55bc 6e4d 75bc fb63 52bd
00000300: f3ca 52bd 0e1b 33be 2dcc f6bd 4647 7dbd
00000310: 430e 82bd 1024 cfbd 75a9 a8bd e3d8 d5bd
00000320: a26b 05be 9310 25bd 1c20 15be 079a 15be
00000330: 25d9 21bd d293 91bd a4f7 d1bd 8ad4 84bd
00000340: 32e7 92bc 425d d9bd cd17 05be 31ab a6bd
00000350: 0a6b bfbd bf4b 9fbd 6c8f 0abd 70b6 d3bd
00000360: 42c0 cfbd 8b19 f4bd 0512 dabd eb69 9bbd
00000370: ff0a 0dbe 95da b5bd 49c3 cdbd 16b8 f7bd
00000380: fa61 cebd 7e4c f7bd 4eed e5bd 562f 80bd
00000390: a2d6 d3bd 0828 cebd 4620 8cbd f824 18be
000003a0: 0813 acbd 1cd3 c8bd 6f32 9bbd 95b1 b7bc
000003b0: dc53 bdbd a28b 4ebd 549a 24bd caa3 e0bd
000003c0: a7ee dfbd d699 a3bd 00ff 0cbe 7323 0ebb
000003d0: f50e e5bd afdd 9abd 1c48 9ebd c92a ccbd
000003e0: 48e5 71bd 33d2 a2bd a585 1bbe 2d15 8abd
000003f0: eb1c a0bd 0585 c0bd 0811 dabc bbc6 11be

tfl.pseudo_qconst1 i1 [256, 8]
-12 55 43 -2 -55 -98 127 -110
-109 -127 -104 -80 -106 50 103 -25
-89 -46 -95 3 -83 -61 -17 -127
18 -127 -72 -64 8 -46 -31 0
-69 -82 -39 -35 10 -127 -56 -57
-10 -20 -50 -112 -127 56 -11 -76
-50 -29 16 -23 37 127 -26 -13
-21 -62 -51 -52 -1 -40 -32 -127
-85 -127 -99 -48 -69 -48 31 -87
86 65 17 -72 -1 66 -30 -127
6 -62 -127 -41 -47 7 10 99
-55 -26 -34 -21 -30 127 70 -67
-29 -94 3 127 -127 92 -25 -32
-118 -60 15 -105 -22 -28 39 -127
-100 70 -105 -127 -117 10 24 -32
-127 31 9 22 -61 37 42 -14
3 -127 -2 -81 -63 116 11 44
-81 -76 4 -40 -3 127 30 9
-62 -127 -82 68 -89 103 -22 -58
-31 14 -55 11 -52 127 12 -3
-66 -80 -10 14 -127 115 58 -71
42 -48 11 2 -21 127 -32 67
-6 -12 -3 -16 -77 127 -11 55
-127 -3 -82 -66 -43 18 101 -125
91 -115 1 -127 -86 71 86 -17
-54 -62 -48 -113 -127 71 49 -40
-84 -127 -62 -25 -27 -94 14 -17
-8 -67 -19 -71 -36 42 -127 -109
3 -72 78 -14 -90 -127 -67 -72
-34 -52 -45 27 -113 4 -93 -127
127 -32 -112 25 -16 -75 -32 -42
47 -127 -38 -9 43 -80 -73 127
00000000: f437 2bfe c99e 7f92 9381 98b0 9632 67e7
00000010: a7d2 a103 adc3 ef81 1281 b8c0 08d2 e100
00000020: bbae d9dd 0a81 c8c7 f6ec ce90 8138 f5b4
00000030: cee3 10e9 257f e6f3 ebc2 cdcc ffd8 e081
00000040: ab81 9dd0 bbd0 1fa9 5641 11b8 ff42 e281
00000050: 06c2 81d7 d107 0a63 c9e6 deeb e27f 46bd
00000060: e3a2 037f 815c e7e0 8ac4 0f97 eae4 2781
00000070: 9c46 9781 8b0a 18e0 811f 0916 c325 2af2
00000080: 0381 feaf c174 0b2c afb4 04d8 fd7f 1e09
00000090: c281 ae44 a767 eac6 e10e c90b cc7f 0cfd
000000a0: beb0 f60e 8173 3ab9 2ad0 0b02 eb7f e043
000000b0: faf4 fdf0 b37f f537 81fd aebe d512 6583
000000c0: 5b8d 0181 aa47 56ef cac2 d08f 8147 31d8
000000d0: ac81 c2e7 e5a2 0eef f8bd edb9 dc2a 8193
000000e0: 03b8 4ef2 a681 bdb8 decc d31b 8f04 a381
000000f0: 7fe0 9019 f0b5 e0d6 2f81 daf7 2bb0 b77f

tfl.pseudo_qconst2 i1 [256, 64]
37 0 20 -10 -6 -53 -5 -22
27 71 30 82 17 -15 20 39
-45 -62 28 19 32 13 26 41
-16 53 -27 56 45 -5 -25 -28
29 -48 86 4 50 28 -46 37
-127 66 -15 3 -33 75 4 30
22 19 32 -26 27 -14 -10 75
16 59 75 -21 91 87 -4 75
-39 -19 -68 55 10 -38 30 -40
38 -48 -54 24 35 -19 -16 81
-88 -54 -4 -97 -59 28 -39 -39
14 -34 0 -11 -1 5 15 0
31 -93 5 -32 -102 86 -36 36
-22 10 -72 69 22 -25 14 -41
-68 85 -93 -127 41 -5 60 16
-28 31 -48 -53 -88 -25 -119 -46
8 55 -6 6 26 2 23 30
-42 45 24 30 -27 29 40 -7
34 42 13 -86 25 25 13 -6
-28 53 59 -22 -2 -22 -84 127
32 -44 -83 -11 0 34 1 28
-60 4 -21 -19 10 11 -46 -63
108 -104 -31 41 20 -13 19 -16
7 -2 22 19 -65 48 -46 15
88 -24 -36 33 -61 62 75 45
94 103 -10 -65 -89 2 -127 68
-98 15 78 26 -41 -76 13 108
24 -101 35 19 -32 26 -23 33
18 -1 -20 24 11 -16 38 -1
-60 74 -17 -25 -15 -64 -74 88
11 77 49 64 43 -18 77 -54
27 31 -62 -55 44 -28 40 56
00000000: 2500 14f6 facb fbea 1b47 1e52 11f1 1427
00000010: d3c2 1c13 200d 1a29 f035 e538 2dfb e7e4
00000020: 1dd0 5604 321c d225 8142 f103 df4b 041e
00000030: 1613 20e6 1bf2 f64b 103b 4beb 5b57 fc4b
00000040: d9ed bc37 0ada 1ed8 26d0 ca18 23ed f051
00000050: a8ca fc9f c51c d9d9 0ede 00f5 ff05 0f00
00000060: 1fa3 05e0 9a56 dc24 ea0a b845 16e7 0ed7
00000070: bc55 a381 29fb 3c10 e41f d0cb a8e7 89d2
00000080: 0837 fa06 1a02 171e d62d 181e e51d 28f9
00000090: 222a 0daa 1919 0dfa e435 3bea feea ac7f
000000a0: 20d4 adf5 0022 011c c404 ebed 0a0b d2c1
000000b0: 6c98 e129 14f3 13f0 07fe 1613 bf30 d20f
000000c0: 58e8 dc21 c33e 4b2d 5e67 f6bf a702 8144
000000d0: 9e0f 4e1a d7b4 0d6c 189b 2313 e01a e921
000000e0: 12ff ec18 0bf0 26ff c44a efe7 f1c0 b658
000000f0: 0b4d 3140 2bee 4dca 1b1f c2c9 2ce4 2838

arith.constant23 f4 [128]
-0.015053946 -0.021439949 0.12517379 -0.2695279 -0.21894784 -0.06649949 -0.21051577 -0.0022955171
-0.32875985 -0.10470284 -0.33967984 -0.13905954 -0.039763536 0.08237729 -0.14084953 -0.090432204
-0.15088812 -0.2128573 -0.23632094 -0.111523554 -0.008113878 -0.18034987 0.00010966493 0.14851119
-0.14080496 -0.10407655 -0.2514373 -0.42321634 0.12982816 -0.18981308 -0.034176234 -0.0486152
1.071614 1.0848979 1.0894499 1.1526651 1.1431841 1.0370144 1.1365616 1.0516088
1.342057 1.0554106 1.2681415 1.0862999 1.0938493 1.0624189 1.1757092 1.0424359
0.96860975 1.3626698 1.175769 1.0691923 1.0463523 1.1075802 1.0795108 1.095453
0.9706047 1.0582168 1.1438586 1.2721342 1.0767934 1.1391475 1.0718256 1.1614728
0.08518963 0.07414442 -0.07291436 -0.05603588 0.058924347 -0.064068146 0.029513083 0.09676644
-0.020712523 -0.083544664 -0.047453433 0.050757393 -0.030234208 -0.06153939 -0.104366615 -0.051046275
-0.037621472 -0.017296493 0.09297123 -0.04789445 -0.10375956 0.023153706 0.072847836 -0.09653765
0.022517685 0.03589954 0.046503384 0.054712273 0.065617524 0.014247658 -0.06828025 0.09588274
0.011616049 0.046093855 -0.02771213 0.09710959 0.10190337 0.05622606 -0.029534632 -0.051518973
-0.2490158 0.06821382 0.131015 0.11479065 0.06292821 0.009038725 0.058771495 0.15537825
-0.018955838 0.19813727 -0.10200403 0.002416378 -0.06131621 0.13388345 -0.04396244 -0.038186576
-0.057242528 0.080376804 0.06679216 -0.03375566 -0.008272572 0.10044296 0.09330265 0.100968726
00000000: d3a4 76bc d5a2 afbc 8f2d 003e 90ff 89be
00000010: dd33 60be e230 88bd 7291 57be 6370 16bb
00000020: 3653 a8be 716e d6bd 84ea adbe a065 0ebe
00000030: 17df 22bd 6db5 a83d dc3a 10be 8534 b9bd
00000040: 6a82 1abe 44f7 59be 1efe 71be 7666 e4bd
00000050: 12f0 04bc a3ad 38be e9fb e538 5113 183e
00000060: 2d2f 10be 1626 d5bd 64bc 80be d0af d8be
00000070: acf1 043e 5c5e 42be 61fc 0bbd bb20 47bd
00000080: a62a 893f efdd 8a3f 1873 8b3f 888a 933f
00000090: db53 923f e3bc 843f da7a 913f 1e9b 863f
000000a0: 86c8 ab3f b217 873f 7652 a23f e00b 8b3f
000000b0: 4103 8c3f 58fd 873f a47d 963f 8a6e 853f
000000c0: cff6 773f f76b ae3f 997f 963f 4bdb 883f
000000d0: dfee 853f 30c5 8d3f 692d 8a3f ce37 8c3f
000000e0: 8d79 783f a673 873f f569 923f 4bd5 a23f
000000f0: 5ed4 893f 96cf 913f 9531 893f 24ab 943f
00000100: e777 ae3d 08d9 973d 2054 95bd e185 65bd
00000110: a85a 713d 2936 83bd 6cc5 f13c 7c2d c63d
00000120: 4fad a9bc 7719 abbd 885e 42bd fce6 4f3d
00000130: bbad f7bc ba10 7cbd 2abe d5bd e615 51bd
00000140: f918 1abd 60b1 8dbc b367 be3d f92c 44bd
00000150: e47f d4bd d7ac bd3c 3f31 953d 88b5 c5bd
00000160: 0277 b83c 650b 133d 557a 3e3d fa19 603d
00000170: 7b62 863d 026f 693c 84d6 8bbd 2c5e c43d
00000180: 3e51 3e3c e9cc 3c3d 8d04 e3bc 65e1 c63d
00000190: b7b2 d03d 4c4d 663d 9df2 f1bc 8f05 53bd
000001a0: fffd 7ebe b0b3 8b3d cc28 063e 5c17 eb3d
000001b0: 81e0 803d 2917 143c 61ba 703d 7a1b 1f3e
000001c0: 4649 9bbc 7fe4 4a3e 7de7 d0bd 185c 1e3b
000001d0: b526 7bbd be18 093e f611 34bd 8769 1cbd
000001e0: 2477 6abd 989c a43d 54ca 883d 6043 0abd
000001f0: af89 07bc 0ab5 cd3d 7615 bf3d b1c8 ce3d

tfl.pseudo_qconst3 i1 [128, 64]
37 -80 -70 54 -21 -20 -67 -38
-33 -39 3 8 -95 80 54 -28
112 58 -13 -47 -15 -77 1 -3
73 30 48 2 48 -4 35 66
52 -127 -68 -104 -28 -93 92 -14
-97 57 61 57 56 -110 1 63
67 -74 -32 -13 122 35 8 92
-85 11 7 -89 -37 62 -121 15
-52 -79 8 81 -68 -79 27 -102
-84 -9 13 63 13 -66 45 126
-26 108 -50 12 -43 -57 -65 24
20 -14 -64 -8 5 -38 10 -15
13 -73 -6 38 -18 -27 43 -66
-19 108 123 -16 46 -16 80 51
-8 -83 -18 -53 -19 -72 36 84
-89 -127 -39 -79 -23 -20 -104 14
127 -39 -22 -2 30 47 -53 -19
-28 -27 -4 -62 43 73 44 -47
56 -34 59 -3 70 -30 76 34
31 57 47 52 13 122 -11 17
78 -85 39 10 -30 -57 -58 -34
-55 -41 7 13 -5 25 -7 -5
39 74 9 19 -15 50 108 18
-29 80 -60 -57 53 10 29 -15
-27 41 -12 -25 60 4 76 16
24 -5 49 38 -45 -12 -74 27
-29 42 76 -60 8 51 0 -16
-101 -65 30 17 -21 -55 -69 70
-29 41 -36 89 45 46 -21 59
-31 -23 38 66 -34 33 -110 -100
-78 49 -71 -17 16 18 30 -56
33 -77 107 12 -91 28 127 5
00000000: 25b0 ba36 ebec bdda dfd9 0308 a150 36e4
00000010: 703a f3d1 f1b3 01fd 491e 3002 30fc 2342
00000020: 3481 bc98 e4a3 5cf2 9f39 3d39 3892 013f
00000030: 43b6 e0f3 7a23 085c ab0b 07a7 db3e 870f
00000040: ccb1 0851 bcb1 1b9a acf7 0d3f 0dbe 2d7e
00000050: e66c ce0c d5c7 bf18 14f2 c0f8 05da 0af1
00000060: 0db7 fa26 eee5 2bbe ed6c 7bf0 2ef0 5033
00000070: f8ad eecb edb8 2454 a781 d9b1 e9ec 980e
00000080: 7fd9 eafe 1e2f cbed e4e5 fcc2 2b49 2cd1
00000090: 38de 3bfd 46e2 4c22 1f39 2f34 0d7a f511
000000a0: 4eab 270a e2c7 c6de c9d7 070d fb19 f9fb
000000b0: 274a 0913 f132 6c12 e350 c4c7 350a 1df1
000000c0: e529 f4e7 3c04 4c10 18fb 3126 d3f4 b61b
000000d0: e32a 4cc4 0833 00f0 9bbf 1e11 ebc9 bb46
000000e0: e329 dc59 2d2e eb3b e1e9 2642 de21 929c
000000f0: b231 b9ef 1012 1ec8 21b3 6b0c a51c 7f05

tfl.pseudo_qconst4 i1 [128, 32]
-14 7 28 19 29 -79 31 21
-40 -42 39 -88 10 29 -19 -44
-2 -31 -26 34 3 3 45 -30
45 -10 127 103 -78 -39 0 3
89 9 85 -31 8 -22 32 -6
-109 -23 -127 32 -7 -14 23 -83
-30 51 -23 4 -61 -2 7 62
-46 78 66 -45 -73 5 -27 -1
22 -8 -106 127 -71 -22 30 65
72 86 -50 -48 39 -71 -57 3
32 -5 29 28 -26 -10 -24 6
72 -20 63 65 37 -23 65 -45
-12 -85 4 12 -18 -92 126 -67
50 -116 -63 48 -4 -32 27 87
24 54 19 29 44 -27 46 -84
-72 -49 127 -41 -42 -1 -96 45
45 15 -18 -33 -25 -93 84 -93
7 -31 79 -27 -31 45 127 -47
-81 69 71 32 29 55 75 -31
-71 -98 -98 68 -36 22 -12 -118
127 15 -14 47 4 38 -28 16
-27 -33 33 8 -43 -116 -5 0
-7 -10 -43 83 13 -27 -57 -47
-1 -31 18 47 -103 37 39 78
-5 -20 -47 -12 -58 -7 127 16
-12 -13 52 -20 -59 -55 27 43
-15 32 -62 -51 1 -33 -9 3
0 -47 17 49 -2 -6 20 -35
-11 6 -23 -31 41 75 -2 29
-127 5 86 1 -64 74 39 41
-14 8 47 41 6 76 7 46
35 89 -49 9 -33 19 14 53
00000000: f207 1c13 1db1 1f15 d8d6 27a8 0a1d edd4
00000010: fee1 e622 0303 2de2 2df6 7f67 b2d9 0003
00000020: 5909 55e1 08ea 20fa 93e9 8120 f9f2 17ad
00000030: e233 e904 c3fe 073e d24e 42d3 b705 e5ff
00000040: 16f8 967f b9ea 1e41 4856 ced0 27b9 c703
00000050: 20fb 1d1c e6f6 e806 48ec 3f41 25e9 41d3
00000060: f4ab 040c eea4 7ebd 328c c130 fce0 1b57
00000070: 1836 131d 2ce5 2eac b8cf 7fd7 d6ff a02d
00000080: 2d0f eedf e7a3 54a3 07e1 4fe5 e12d 7fd1
00000090: af45 4720 1d37 4be1 b99e 9e44 dc16 f48a
000000a0: 7f0f f22f 0426 e410 e5df 2108 d58c fb00
000000b0: f9f6 d553 0de5 c7d1 ffe1 122f 9925 274e
000000c0: fbec d1f4 c6f9 7f10 f4f3 34ec c5c9 1b2b
000000d0: f120 c2cd 01df f703 00d1 1131 fefa 14dd
000000e0: f506 e9e1 294b fe1d 8105 5601 c04a 2729
000000f0: f208 2f29 064c 072e 2359 cf09 df13 0e35
