Models_Convert_tf/CivilCenter_tflite/CivilCenter_lstm.tflite (tflite, 95400 bytes, 8 tensors)

arith.constant12 f4 [720]
0	0x3e7231d5	0.23651822
1	0x3e74604c	0.2386486
2	0x3e71d1bb	0.23615162
3	0x3e7283d0	0.23683095
4	0x3e763fc0	0.24047756
5	0x3e72ebac	0.23722714
6	0x3e74d3c1	0.23908903
7	0x3e72eb67	0.23722611
8	0x3e74dff5	0.23913558
9	0x3e7261f9	0.23670186
10	0x3e757d8d	0.23973675
11	0x3e76da6d	0.2410676
12	0x3e7921d0	0.24329305
13	0x3e72dc3e	0.23716828
14	0x3e75d4a4	0.24006897
15	0x3e763cbe	0.24046609
16	0x3e72bb3a	0.23704234
17	0x3e716f41	0.23577596
18	0x3e71d50a	0.23616424
19	0x3e709ab1	0.2349651
20	0x3e72ae6a	0.23699346
21	0x3e72dc48	0.23716843
22	0x3e7644bb	0.24049656
23	0x3e741d61	0.23839332
24	0x3e731955	0.23740132
25	0x3e6ddafd	0.23228069
26	0x3e70b1a4	0.23505265
27	0x3e716e15	0.23577149
28	0x3e74f489	0.23921408
29	0x3e72761a	0.23677865
30	0x3e75432c	0.23951405
31	0x3e75d4c3	0.24006943
32	0x3e773e9d	0.24144979
33	0x3e768746	0.2407504
34	0x3e7a06c6	0.24416646
35	0x3e7c3975	0.24631293
36	0x3e78bbec	0.24290437
37	0x3e766f62	0.24065927
38	0x3e742a2b	0.23844211
39	0x3e76f67b	0.24117462
40	0x3e7611c0	0.24030209
41	0x3e7376d1	0.23775794
42	0x3e6f28d6	0.23355421
43	0x3e714bf4	0.2356413
44	0x3e726efc	0.2367515
45	0x3e6fcf94	0.23419029
46	0x3e743547	0.23848449
47	0x3e724a06	0.2366105
48	0x3e6f8f30	0.23394465
49	0x3e6bf3fa	0.23042288
50	0x3e6e8d33	0.2329605
51	0x3e719f60	0.23595953
52	0x3e74d7b2	0.23910406
53	0x3e7257cf	0.23666309
54	0x3e75f22e	0.24018165
55	0x3e70bf98	0.23510587
56	0x3e72b0b2	0.23700216
57	0x3e71a8a3	0.23599486
58	0x3e73d520	0.2381177
59	0x3e767248	0.24067032
60	0x3e77b5de	0.2419047
61	0x3e73fc3b	0.23826687
62	0x3e75f90c	0.24020785
63	0x3e763e72	0.24047258
64	0x3e7648b0	0.24051166
65	0x3e73d46a	0.23811498
66	0x3e76f7ab	0.24117915
67	0x3e766302	0.24061206
68	0x3e78f875	0.24313529
69	0x3e785f8e	0.24255201
70	0x3e7cf7fe	0.24703977
71	0x3e7a6fad	0.24456663
72	0x3e77d530	0.24202418
73	0x3e772748	0.24136078
74	0x3e75ac0b	0.2399141
75	0x3e7745c0	0.24147701
76	0x3e7a986b	0.24472205
77	0x3e76b8d7	0.24093948
78	0x3e75be3f	0.23998354
79	0x3e73b591	0.23799731
80	0x3e738075	0.23779471
81	0x3e711a97	0.235453
82	0x3e74b53d	0.23897262
83	0x3e744bf4	0.23857099
84	0x3e73155a	0.23738614
85	0x3e6f9a32	0.23398665
86	0x3e71a346	0.2359744
87	0x3e7366ee	0.23769733
88	0x3e73f4a3	0.2382379
89	0x3e739f5a	0.23791257
90	0x3e72617a	0.23669997
91	0x3e745f9d	0.23864599
92	0x3e77e66e	0.24208996
93	0x3e7a7e99	0.24462356
94	0x3e7fd7e1	0.24984695
95	0x3e7c155b	0.24617521
96	0x3e7a4af4	0.24442655
97	0x3e7f30c0	0.2492094
98	0x3e786cfa	0.24260321
99	0x3e7e3d7a	0.24828139
100	0x3e7ad57f	0.24495505
101	0x3e7de902	0.24795917
102	0x3e7c56e7	0.24642526
103	0x3e7bb6bd	0.24581428
104	0x3e7b6909	0.24551786
105	0x3e7a09e7	0.2441784
106	0x3e7d8527	0.24757825
107	0x3e7bd38f	0.24592422
108	0x3e77ec07	0.24211131
109	0x3e7a4cc9	0.24443354
110	0x3e7a881e	0.24465987
111	0x3e7d17fa	0.24716178
112	0x3e7b39b4	0.24533731
113	0x3e7822d0	0.2423203
114	0x3e7a0d2c	0.24419087
115	0x3e79011b	0.24316828
116	0x3e7ac7fc	0.2449035
117	0x3e7a77ca	0.24459758
118	0x3e7e3e9d	0.24828573
119	0x3e7b7f13	0.24560194
120	0x3e7a9477	0.24470697
121	0x3e7b1cf9	0.24522771
122	0x3e7b0ee3	0.24517398
123	0x3e7ec9f7	0.24881731
124	0x3e7e28ae	0.24820206
125	0x3e7cc5de	0.24684855
126	0x3e7e1b64	0.24815136
127	0x3e7c4abd	0.24637885
128	0x3e7d0cc9	0.24711908
129	0x3e7a17e5	0.24423178
130	0x3e806151	0.25074247
131	0x3e7c6f5f	0.2465186
132	0x3e7ff652	0.24996307
133	0x3e7f09e7	0.24906121
134	0x3e7d672f	0.24746393
135	0x3e7da875	0.24771293
136	0x3e7e4400	0.24830627
137	0x3e76b1dd	0.24091287
138	0x3e7a3f59	0.24438228
139	0x3e79763f	0.24361514
140	0x3e79ec57	0.24406563
141	0x3e787b5b	0.24265806
142	0x3e7b6ccc	0.24553221
143	0x3e77ffc1	0.24218656
144	0x3e74da8a	0.23911491
145	0x3e745cb5	0.2386349
146	0x3e743d51	0.23851515
147	0x3e77b71f	0.24190949
148	0x3e7766d8	0.24160326
149	0x3e76b0c0	0.24090862
150	0x3e76e38b	0.24110238
151	0x3e77ef8f	0.24212478
152	0x3e7469fb	0.23868553
153	0x3e74833c	0.23878187
154	0x3e794818	0.24343908
155	0x3e7aaf30	0.24480891
156	0x3e784c30	0.24247813
157	0x3e770fe7	0.2412716
158	0x3e76f074	0.24115163
159	0x3e7927a3	0.24331526
160	0x3e754b97	0.23954616
161	0x3e770cb1	0.24125935
162	0x3e757935	0.23972018
163	0x3e760c14	0.24028045
164	0x3e7693dd	0.24079843
165	0x3e75462e	0.23952553
166	0x3e76ae60	0.24089956
167	0x3e76f91b	0.24118464
168	0x3e73ea28	0.23819792
169	0x3e707b8c	0.2348463
170	0x3e6d07b2	0.23147467
171	0x3e6f710c	0.23382968
172	0x3e71ca08	0.23612225
173	0x3e6f7fb3	0.23388557
174	0x3e6f0caa	0.23344675
175	0x3e728024	0.23681694
176	0x3e72cb48	0.23710358
177	0x3e6e1248	0.23249161
178	0x3e74cd8c	0.23906535
179	0x3e732303	0.23743825
180	0x3e725885	0.2366658
181	0x3e731e1d	0.23741956
182	0x3e744c90	0.23857331
183	0x3e709625	0.23494776
184	0x3e6f0506	0.2334176
185	0x3e703964	0.23459393
186	0x3e6b431a	0.22974816
187	0x3e6f570e	0.23373052
188	0x3e70c982	0.23514369
189	0x3e70244a	0.23451343
190	0x3e72ee8d	0.23723812
191	0x3e73a244	0.23792368
192	0x3e726a93	0.23673467
193	0x3e6e4985	0.23270233
194	0x3e71c477	0.23610102
195	0x3e74f7c9	0.23922648
196	0x3e7592b7	0.23981749
197	0x3e77a75c	0.24184936
198	0x3e7916f1	0.24325158
199	0x3e79a761	0.24380256
200	0x3e7afdbe	0.24510857
201	0x3e78a769	0.24282612
202	0x3e7d4c5e	0.24736163
203	0x3e7c1126	0.24615917
204	0x3e7ccb61	0.24686958
205	0x3e795eb1	0.24352528
206	0x3e79172e	0.24325249
207	0x3e75c611	0.24001338
208	0x3e77786a	0.24167028
209	0x3e734bfa	0.23759452
210	0x3e72b5e5	0.237022
211	0x3e726097	0.23669659
212	0x3e738b93	0.23783712
213	0x3e6f09a6	0.23343524
214	0x3e7250b9	0.23663606
215	0x3e6fc42b	0.23414676
216	0x3e704127	0.23462354
217	0x3e6ed70f	0.23324226
218	0x3e6a175a	0.2286047
219	0x3e70b622	0.23506978
220	0x3e7480be	0.23877236
221	0x3e73e033	0.23815994
222	0x3e727a20	0.236794
223	0x3e731809	0.23739637
224	0x3e71d8fa	0.23617926
225	0x3e7188c5	0.2358733
226	0x3e75505e	0.23956439
227	0x3e75443d	0.23951812
228	0x3e79416c	0.24341363
229	0x3e77eb10	0.24210763
230	0x3e755098	0.23956525
231	0x3e77d5f6	0.24202713
232	0x3e75e020	0.24011278
233	0x3e74d111	0.23907878
234	0x3e7310ec	0.23736924
235	0x3e76ef7e	0.24114797
236	0x3e76828b	0.24073236
237	0x3e7633b2	0.24043158
238	0x3e79d2bd	0.24396797
239	0x3e7a828d	0.24463864
240	0x3e79339f	0.24336098
241	0x3e75457e	0.2395229
242	0x3e758a8c	0.23978633
243	0x3e74bc90	0.23900056
244	0x3e796421	0.24354602
245	0x3e780577	0.24220835
246	0x3e75bd2c	0.23997945
247	0x3e7723af	0.24134706
248	0x3e75faf0	0.24021506
249	0x3e758c3e	0.2397928
250	0x3e72a00f	0.2369387
251	0x3e754537	0.23952185
252	0x3e726f1f	0.23675202
253	0x3e710e40	0.23540592
254	0x3e6fcc8a	0.23417869
255	0x3e72ff09	0.237301

tfl.pseudo_qconst i1 [720, 32]
0	0x1b	27
1	0xea	-22
2	0xf6	-10
3	0xf9	-7
4	0x56	86
5	0xeb	-21
6	0x17	23
7	0xcf	-49
8	0x69	105
9	0x19	25
10	0x13	19
11	0xf6	-10
12	0x01	1
13	0x08	8
14	0x0e	14
15	0x2c	44
16	0xa5	-91
17	0x64	100
18	0x02	2
19	0xdc	-36
20	0xfe	-2
21	0x01	1
22	0x5b	91
23	0x2b	43
24	0xf0	-16
25	0xf2	-14
26	0x7f	127
27	0xe7	-25
28	0xf5	-11
29	0x4d	77
30	0x21	33
31	0xc2	-62
32	0x1a	26
33	0xd4	-44
34	0xf5	-11
35	0xfe	-2
36	0x4f	79
37	0xfa	-6
38	0x1c	28
39	0xbe	-66
40	0x56	86
41	0x27	39
42	0x0f	15
43	0x03	3
44	0x0d	13
45	0x01	1
46	0x01	1
47	0x0c	12
48	0x97	-105
49	0x62	98
50	0x0a	10
51	0xdc	-36
52	0x03	3
53	0x02	2
54	0x61	97
55	0x1f	31
56	0xf0	-16
57	0xf9	-7
58	0x7f	127
59	0xfb	-5
60	0xef	-17
61	0x51	81
62	0x23	35
63	0xd1	-47
64	0x1d	29
65	0xb7	-73
66	0xf9	-7
67	0x01	1
68	0x4f	79
69	0x04	4
70	0x26	38
71	0xac	-84
72	0x56	86
73	0x39	57
74	0x12	18
75	0x03	3
76	0x1a	26
77	0xfe	-2
78	0xf6	-10
79	0xfe	-2
80	0x8e	-114
81	0x59	89
82	0x12	18
83	0xda	-38
84	0x06	6
85	0xfd	-3
86	0x5a	90
87	0x11	17
88	0xeb	-21
89	0xfd	-3
90	0x7f	127
91	0x0f	15
92	0xeb	-21
93	0x4e	78
94	0x20	32
95	0xd4	-44
96	0x1a	26
97	0x9f	-97
98	0xf8	-8
99	0x0a	10
100	0x54	84
101	0x13	19
102	0x30	48
103	0x9f	-97
104	0x4e	78
105	0x45	69
106	0x14	20
107	0x00	0
108	0x20	32
109	0x0a	10
110	0xf0	-16
111	0xfa	-6
112	0x81	-127
113	0x59	89
114	0x1c	28
115	0xe2	-30
116	0x09	9
117	0x02	2
118	0x4c	76
119	0x0b	11
120	0xeb	-21
121	0x05	5
122	0x76	118
123	0x33	51
124	0xe7	-25
125	0x36	54
126	0x25	37
127	0xe2	-30
128	0x19	25
129	0x95	-107
130	0xe2	-30
131	0x0e	14
132	0x48	72
133	0x27	39
134	0x37	55
135	0x92	-110
136	0x45	69
137	0x48	72
138	0x1d	29
139	0xfe	-2
140	0x1c	28
141	0x0f	15
142	0xde	-34
143	0x02	2
144	0x81	-127
145	0x51	81
146	0x21	33
147	0xe9	-23
148	0x03	3
149	0x04	4
150	0x39	57
151	0x03	3
152	0xf0	-16
153	0xfe	-2
154	0x61	97
155	0x54	84
156	0xec	-20
157	0x12	18
158	0x27	39
159	0xf3	-13
160	0x16	22
161	0x86	-122
162	0xd5	-43
163	0x12	18
164	0x34	52
165	0x39	57
166	0x45	69
167	0x89	-119
168	0x38	56
169	0x47	71
170	0x26	38
171	0xfb	-5
172	0x1a	26
173	0x19	25
174	0xd0	-48
175	0x06	6
176	0x81	-127
177	0x4d	77
178	0x28	40
179	0xea	-22
180	0xfd	-3
181	0x04	4
182	0x25	37
183	0xfb	-5
184	0xec	-20
185	0xfa	-6
186	0x4e	78
187	0x69	105
188	0xe9	-23
189	0xf1	-15
190	0x22	34
191	0x03	3
192	0x10	16
193	0x85	-123
194	0xcd	-51
195	0x06	6
196	0x27	39
197	0x48	72
198	0x51	81
199	0x81	-127
200	0x2e	46
201	0x36	54
202	0x37	55
203	0xf2	-14
204	0x0c	12
205	0x19	25
206	0xba	-70
207	0x01	1
208	0x93	-109
209	0x43	67
210	0x26	38
211	0xec	-20
212	0xfd	-3
213	0x07	7
214	0x1a	26
215	0xfa	-6
216	0xe6	-26
217	0xfa	-6
218	0x42	66
219	0x68	104
220	0xe9	-23
221	0xd1	-47
222	0x24	36
223	0x18	24
224	0x0e	14
225	0x8f	-113
226	0xcd	-51
227	0xff	-1
228	0x1d	29
229	0x3c	60
230	0x5a	90
231	0x81	-127
232	0x27	39
233	0x1c	28
234	0x3b	59
235	0xe9	-23
236	0x08	8
237	0x18	24
238	0xa6	-90
239	0xe9	-23
240	0xa7	-89
241	0x3c	60
242	0x26	38
243	0xf4	-12
244	0xfb	-5
245	0x09	9
246	0x13	19
247	0xfb	-5
248	0xde	-34
249	0x04	4
250	0x32	50
251	0x47	71
252	0xe8	-24
253	0xb1	-79
254	0x25	37
255	0x24	36

arith.constant18 f4 [256]
0	0x3c423d83	0.011855486
1	0xbbfef1cf	-0.0077802907
2	0x3c3db230	0.011578128
3	0x3caaa465	0.020830343
4	0xbc86cdf0	-0.01645562
5	0xbbfe65e7	-0.0077636125
6	0xbc5b9a07	-0.013403422
7	0xbccaff00	-0.024779797
8	0xbc2d9ab0	-0.010595962
9	0x3d04e8d2	0.032448597
10	0x3ce80375	0.028321961
11	0xbbf3e8b8	-0.0074435137
12	0xbaa43ec2	-0.001253091
13	0x3d095948	0.03353241
14	0xbc14b414	-0.009076137
15	0x39cd8fd6	0.00039207813
16	0xbc2fc060	-0.010727018
17	0x3bbacdbd	0.0057007954
18	0xbce73dd0	-0.028227717
19	0xbb8f3067	-0.0043697837
20	0x3a8cf773	0.0010754898
21	0x3d389f25	0.045073647
22	0x3c369073	0.011142838
23	0xbd1b8cf9	-0.03797624
24	0xbc2f5d01	-0.010703326
25	0xbc7072e0	-0.014675826
26	0xbb0e8dcb	-0.0021751996
27	0x3d3a5fb2	0.04550142
28	0x3d5175f3	0.051137876
29	0xbcdeda83	-0.027203804
30	0x3c800332	0.015626524
31	0x3c24700b	0.010036479
32	0xbc7ee15e	-0.015556661
33	0xbb17984c	-0.0023131547
34	0x3dc90b51	0.098166116
35	0xbcd26067	-0.025680734
36	0xbbc32374	-0.005955154
37	0x3b00621b	0.0019589725
38	0x3aab64af	0.0013076271
39	0x3c597477	0.013272396
40	0x3c9bf95c	0.019039802
41	0xbc71183f	-0.014715253
42	0x3d31a496	0.043369852
43	0x3d493dd4	0.04913123
44	0xbae7fb8b	-0.0017698867
45	0x3dd9932c	0.10623774
46	0xbcdcab63	-0.026937192
47	0xbd38f139	-0.045151923
48	0xbc5470b0	-0.01296632
49	0x3d0e04c1	0.034672502
50	0x3d09250b	0.033482593
51	0xba6adbec	-0.00089591625
52	0x3b4b1179	0.0030985756
53	0x3c03a7ee	0.008035643
54	0xb9aebac6	-0.00033327023
55	0xba87b4f0	-0.0010353606
56	0x3bd90706	0.0066231517
57	0x3c389d9e	0.011268048
58	0x3bc3fb5b	0.0059808916
59	0x3c914e71	0.0177376
60	0x3d668d97	0.056287374
61	0xbc9939ba	-0.018704284
62	0xbd0d5a85	-0.034510154
63	0xbb9bee7e	-0.004758655
64	0x3f884646	1.0646446
65	0x3f81c6a3	1.0138744
66	0x3f810785	1.008042
67	0x3f86bfb2	1.0527251
68	0x3f7d71fa	0.9900204
69	0x3f804c44	1.0023274
70	0x3f84377e	1.0329435
71	0x3f808afd	1.0042416
72	0x3f8097a9	1.0046283
73	0x3f8c7542	1.0973284
74	0x3f826db5	1.018973
75	0x3f80a079	1.0048972
76	0x3f81a480	1.0128326
77	0x3f8688ad	1.051046
78	0x3f84d301	1.0376893
79	0x3f848897	1.0354184
80	0x3f81aea0	1.0131416
81	0x3f84035a	1.0313523
82	0x3f7e5256	0.99344385
83	0x3f833bce	1.0252626
84	0x3f82cb55	1.0218302
85	0x3f85e458	1.046031
86	0x3f83ea56	1.0305889
87	0x3f7b4cc1	0.9816399
88	0x3f7ea439	0.99469334
89	0x3f7b1f68	0.980948
90	0x3f819593	1.0123771
91	0x3f8c3ded	1.0956398
92	0x3f86132b	1.04746
93	0x3f80e090	1.0068531
94	0x3f835ef0	1.0263348
95	0x3f861011	1.0473653
96	0x3f7efe7f	0.9960708
97	0x3f8156f4	1.0104661
98	0x3f8fcae7	1.1233796
99	0x3f7d112e	0.9885434
100	0x3f7c8782	0.9864427
101	0x3f811a11	1.008608
102	0x3f81eb4b	1.0149931
103	0x3f803b6c	1.0018134
104	0x3f84dbca	1.0379574
105	0x3f7ffdb7	0.99996513
106	0x3f876386	1.0577247
107	0x3f8905c0	1.070488
108	0x3f833ae2	1.0252345
109	0x3f90681e	1.1281774
110	0x3f7257d6	0.94665277
111	0x3f78b32f	0.9714841
112	0x3f80326c	1.0015388
113	0x3f828d55	1.0199381
114	0x3f8441ef	1.0332621
115	0x3f82af00	1.0209656
116	0x3f7b281a	0.98108065
117	0x3f7d8684	0.9903338
118	0x3f8009bb	1.000297
119	0x3f84be9f	1.0370673
120	0x3f81776e	1.0114572
121	0x3f8098e2	1.0046656
122	0x3f80486b	1.00221
123	0x3f80eca4	1.0072217
124	0x3f8b5667	1.0885743
125	0x3f80b3c6	1.0054862
126	0x3f7e1ddf	0.9926433
127	0x3f814e7c	1.0102077
128	0x3cce7b09	0.025205152
129	0xbc00645a	-0.007836426
130	0x3d08cb68	0.03339711
131	0xbd2864ac	-0.041111633
132	0xb94967b6	-0.00019207489
133	0x3af568b3	0.0018723219
134	0x3c392baa	0.011301914
135	0x3cc30a75	0.023808697
136	0xbc266f7e	-0.010158418
137	0xbcc51b9d	-0.024061019
138	0x3c6fecaf	0.014643832
139	0x3ae40861	0.0017397517
140	0x3cac48d4	0.02103082
141	0xba4ec212	-0.0007887195
142	0x3cddab1d	0.027059132
143	0xbd0d2964	-0.0344633
144	0x3b19e419	0.0023481904
145	0x3c5f0030	0.013610885
146	0xbd5487ef	-0.05188745
147	0xbba297f4	-0.004961962
148	0xbc9fa8d6	-0.019489687
149	0x3c130c74	0.008975137
150	0x3cbb173a	0.022838224
151	0x3b8a49ff	0.004220247
152	0xbca0a3d7	-0.019609375
153	0x3bc3de06	0.005977395
154	0x3bf0c348	0.007347498
155	0x3c48c7fd	0.012254712
156	0xbb923462	-0.004461811
157	0xbb5a328c	-0.0033294288
158	0xbb17b320	-0.0023147538
159	0xbc9dadce	-0.019247916
160	0xbc11c664	-0.008897398
161	0xbc4d3b80	-0.012526393
162	0xbca48596	-0.02008323
163	0xbc3e9dbe	-0.011634288
164	0x3b064f03	0.0020493872
165	0xbcd5b9c1	-0.02608955
166	0xbb3f3fab	-0.0029182236
167	0x3b9ee184	0.004848661
168	0xbbacfb78	-0.005279001
169	0xbb8ee703	-0.004361035
170	0xbc8e6861	-0.017383756
171	0x3aa24848	0.0012381161
172	0x3996f61d	0.00028793598
173	0xbcb1d12a	-0.021706183
174	0x3bac9771	0.0052670767
175	0x3ce70569	0.028200822
176	0xbb57320b	-0.0032836224
177	0xbc10dddd	-0.008841959
178	0xbb0be45b	-0.0021345827
179	0xbd69063b	-0.056890707
180	0xbd7ff7f7	-0.062492337
181	0xbc533793	-0.012891668
182	0x3cd47ac6	0.02593745
183	0x3c9fde46	0.019515168
184	0x3b610171	0.0034333135
185	0x3d0790b9	0.033097003
186	0x3c3207af	0.01086609
187	0x3c82dcba	0.015974391
188	0xbb3b0392	-0.0028536064
189	0xbba0c09a	-0.0049057724
190	0x3a1b4d6e	0.00059243187
191	0xbd8a2a6c	-0.067463726
192	0x3c6f1d8e	0.014594449
193	0xbb43c1d8	-0.0029870179
194	0x3b3d9ba8	0.002893189
195	0x3ccf8372	0.025331233
196	0xbcc9865d	-0.024600202
197	0xbc09ead0	-0.0084178
198	0xbc98f810	-0.018672973
199	0xbcd991af	-0.026558725
200	0xbca90b67	-0.02063532
201	0x3cb311df	0.021859108
202	0x3d424ce7	0.04743662
203	0xbc00b209	-0.007854947
204	0xbb40efc5	-0.0029439789
205	0x3d1392c0	0.036028624
206	0xbc1700e0	-0.009216517
207	0x3cb28a64	0.021794505
208	0xbcd00bb6	-0.02539621
209	0xbbb53403	-0.005529882
210	0xbce55559	-0.027994798
211	0xbd000fd8	-0.03126511
212	0xbc61a774	-0.013772834
213	0x3c166107	0.009178407
214	0xb9031e0a	-0.00012504324
215	0xbd28e83b	-0.041237097
216	0xbcb4df97	-0.022079272
217	0xbc9bc1e1	-0.019013347
218	0x3b70afb3	0.0036725819
219	0x3cf63930	0.030056566
220	0x3d4083de	0.04700076
221	0xbc746d85	-0.01491869
222	0x3bb90027	0.00564577
223	0x38d51095	0.0001015972
224	0xbd00158b	-0.031270545
225	0xbc07d8a2	-0.008291395
226	0xbac7c70d	-0.0015241817
227	0xbd133d4c	-0.03594713
228	0x3b410712	0.0029453677
229	0x3c326f27	0.010890759
230	0x3c5fbc82	0.013655784
231	0xbb53eae4	-0.003233605
232	0x3c72ad68	0.014811851
233	0xbd1cc0e1	-0.03826988
234	0x3c0de3f4	0.008660305
235	0x3a679318	0.00088338694
236	0x3c0ba310	0.008522764
237	0xbc7f8caf	-0.015597506
238	0xbd3511e8	-0.04420653
239	0xbd7b4375	-0.06134363
240	0xbcb351dd	-0.021889621
241	0x3cc58b81	0.024114372
242	0x3ce902e4	0.028443761
243	0x3bb3e2c8	0.005489681
244	0xbad876cd	-0.0016514898
245	0x3b966e7a	0.0045908066
246	0xbc42c654	-0.011888105
247	0x3c17163c	0.00922161
248	0x3c2c799e	0.010527043
249	0x3ca06708	0.01958038
250	0x3c5fe2e7	0.013664938
251	0x3c494176	0.0122836735
252	0x3da54303	0.08069422
253	0xbcc1136f	-0.023568837
254	0xbd00d84a	-0.03145627
255	0xbba1fc43	-0.004943402

tfl.pseudo_qconst1 i1 [256, 7]
0	0xb6	-74
1	0xe5	-27
2	0x35	53
3	0xc2	-62
4	0x98	-104
5	0x13	19
6	0x7f	127
7	0x37	55
8	0x4a	74
9	0xd4	-44
10	0xf0	-16
11	0x81	-127
12	0x23	35
13	0x9c	-100
14	0x64	100
15	0x6c	108
16	0x28	40
17	0x0d	13
18	0x7f	127
19	0x38	56
20	0xdb	-37
21	0x51	81
22	0xe0	-32
23	0x81	-127
24	0x0e	14
25	0xfa	-6
26	0x2c	44
27	0x47	71
28	0xe4	-28
29	0xb1	-79
30	0x44	68
31	0x6b	107
32	0x7f	127
33	0xd6	-42
34	0xf5	-11
35	0xe0	-32
36	0x37	55
37	0x66	102
38	0x8b	-117
39	0x28	40
40	0x81	-127
41	0xc9	-55
42	0x4f	79
43	0xb5	-75
44	0xbf	-65
45	0x07	7
46	0x2f	47
47	0x6a	106
48	0x81	-127
49	0x81	-127
50	0x18	24
51	0xa8	-88
52	0x3a	58
53	0xa4	-92
54	0x3a	58
55	0x8b	-117
56	0x0a	10
57	0xb1	-79
58	0x4f	79
59	0x5c	92
60	0x81	-127
61	0xfd	-3
62	0x0c	12
63	0xc4	-60
64	0x99	-103
65	0x69	105
66	0x33	51
67	0xd5	-43
68	0xcc	-52
69	0x7f	127
70	0xb6	-74
71	0xc8	-56
72	0x71	113
73	0x7f	127
74	0x09	9
75	0xa9	-87
76	0xac	-84
77	0x2c	44
78	0xf9	-7
79	0xac	-84
80	0x38	56
81	0x81	-127
82	0xcd	-51
83	0xcb	-53
84	0x81	-127
85	0xbd	-67
86	0x0e	14
87	0x5b	91
88	0x9e	-98
89	0xc3	-61
90	0xdf	-33
91	0x42	66
92	0x31	49
93	0x4a	74
94	0x7f	127
95	0x59	89
96	0x39	57
97	0x6b	107
98	0xba	-70
99	0xbf	-65
100	0xb1	-79
101	0x7f	127
102	0x8a	-118
103	0x42	66
104	0x2c	44
105	0x70	112
106	0x04	4
107	0xed	-19
108	0xef	-17
109	0x5b	91
110	0x7f	127
111	0x2c	44
112	0x39	57
113	0x0d	13
114	0xdb	-37
115	0x09	9
116	0x81	-127
117	0xd6	-42
118	0xe5	-27
119	0xfa	-6
120	0x01	1
121	0x26	38
122	0x4b	75
123	0xa3	-93
124	0x00	0
125	0x81	-127
126	0xf5	-11
127	0xf4	-12
128	0xa4	-92
129	0x7f	127
130	0xbc	-68
131	0x69	105
132	0x27	39
133	0x5e	94
134	0x13	19
135	0x9a	-102
136	0x1c	28
137	0xfa	-6
138	0xbf	-65
139	0x7f	127
140	0x15	21
141	0xd6	-42
142	0x51	81
143	0xe4	-28
144	0xad	-83
145	0x7f	127
146	0x3b	59
147	0x1f	31
148	0xe1	-31
149	0x2e	46
150	0x6b	107
151	0x54	84
152	0x7f	127
153	0xa8	-88
154	0x16	22
155	0xf1	-15
156	0xbf	-65
157	0xdd	-35
158	0x40	64
159	0x7f	127
160	0xe1	-31
161	0x9c	-100
162	0x41	65
163	0xd1	-47
164	0x17	23
165	0x81	-127
166	0x27	39
167	0xe2	-30
168	0x22	34
169	0x84	-124
170	0x1c	28
171	0x7f	127
172	0x85	-123
173	0x48	72
174	0xb1	-79
175	0xaa	-86
176	0x81	-127
177	0x40	64
178	0xdd	-35
179	0x5c	92
180	0x02	2
181	0xe4	-28
182	0x4f	79
183	0xd4	-44
184	0x4d	77
185	0x81	-127
186	0xa6	-90
187	0xe8	-24
188	0xef	-17
189	0x7f	127
190	0x55	85
191	0x42	66
192	0x06	6
193	0x1f	31
194	0x4b	75
195	0x34	52
196	0xcc	-52
197	0x6b	107
198	0xf8	-8
199	0x3d	61
200	0x81	-127
201	0xe4	-28
202	0x08	8
203	0x1d	29
204	0x6c	108
205	0xd2	-46
206	0x03	3
207	0x81	-127
208	0x39	57
209	0xfc	-4
210	0x81	-127
211	0xbe	-66
212	0xfd	-3
213	0x9c	-100
214	0x13	19
215	0xa5	-91
216	0xf9	-7
217	0xbb	-69
218	0xb1	-79
219	0x39	57
220	0x1d	29
221	0xe1	-31
222	0x7f	127
223	0x2e	46
224	0xe6	-26
225	0xd8	-40
226	0x2e	46
227	0xb3	-77
228	0x81	-127
229	0xdb	-37
230	0xfb	-5
231	0x7f	127
232	0x1e	30
233	0x18	24
234	0x3c	60
235	0xf7	-9
236	0x29	41
237	0x02	2
238	0x66	102
239	0x22	34
240	0x7f	127
241	0x1f	31
242	0x47	71
243	0x07	7
244	0xfd	-3
245	0x81	-127
246	0x2f	47
247	0x54	84
248	0xe3	-29
249	0x24	36
250	0x75	117
251	0xdd	-35
252	0x81	-127
253	0x6f	111
254	0x46	70
255	0x1f	31

tfl.pseudo_qconst2 i1 [256, 64]
0	0x44	68
1	0xc6	-58
2	0x1b	27
3	0xf8	-8
4	0x0c	12
5	0xe9	-23
6	0x31	49
7	0x3a	58
8	0xee	-18
9	0xfb	-5
10	0xfe	-2
11	0xe4	-28
12	0x3b	59
13	0xf1	-15
14	0x07	7
15	0x47	71
16	0xe0	-32
17	0x37	55
18	0xdd	-35
19	0xd7	-41
20	0x41	65
21	0x20	32
22	0x09	9
23	0x1d	29
24	0xeb	-21
25	0xf6	-10
26	0xc6	-58
27	0xf8	-8
28	0xa4	-92
29	0xe2	-30
30	0xec	-20
31	0xc7	-57
32	0x17	23
33	0xe3	-29
34	0x11	17
35	0x2a	42
36	0xf9	-7
37	0xfc	-4
38	0x1d	29
39	0x2e	46
40	0xee	-18
41	0x32	50
42	0xca	-54
43	0x15	21
44	0x7f	127
45	0xcc	-52
46	0xe2	-30
47	0xfa	-6
48	0x2e	46
49	0xd1	-47
50	0xea	-22
51	0xeb	-21
52	0xf2	-14
53	0x9d	-99
54	0x09	9
55	0x5c	92
56	0x20	32
57	0x22	34
58	0x07	7
59	0x19	25
60	0xaa	-86
61	0x42	66
62	0x5a	90
63	0xfa	-6
64	0xef	-17
65	0xf0	-16
66	0xdd	-35
67	0x42	66
68	0x05	5
69	0x18	24
70	0xf4	-12
71	0xa5	-91
72	0x10	16
73	0xfe	-2
74	0xac	-84
75	0x24	36
76	0xdb	-37
77	0x0e	14
78	0xf0	-16
79	0xa2	-94
80	0xeb	-21
81	0x52	82
82	0xe1	-31
83	0x0b	11
84	0x17	23
85	0x29	41
86	0xb1	-79
87	0xc6	-58
88	0x7f	127
89	0xb4	-76
90	0xf6	-10
91	0xd8	-40
92	0xe4	-28
93	0xbe	-66
94	0x29	41
95	0x3f	63
96	0xea	-22
97	0x84	-124
98	0xb8	-72
99	0x13	19
100	0x55	85
101	0xdd	-35
102	0xe5	-27
103	0xc9	-55
104	0xf9	-7
105	0xed	-19
106	0xd0	-48
107	0xb2	-78
108	0x2c	44
109	0xd9	-39
110	0xbf	-65
111	0x0b	11
112	0x18	24
113	0x0c	12
114	0x3b	59
115	0x2b	43
116	0x00	0
117	0x53	83
118	0x48	72
119	0x1d	29
120	0xcd	-51
121	0x4d	77
122	0x35	53
123	0x00	0
124	0xd6	-42
125	0xb5	-75
126	0x10	16
127	0x42	66
128	0x7f	127
129	0xe1	-31
130	0x35	53
131	0xfa	-6
132	0x7c	124
133	0xb8	-72
134	0xc6	-58
135	0x18	24
136	0xe0	-32
137	0xc8	-56
138	0xb7	-73
139	0x3e	62
140	0xdf	-33
141	0xb0	-80
142	0xd6	-42
143	0xd4	-44
144	0x09	9
145	0xd8	-40
146	0x42	66
147	0x2e	46
148	0xe0	-32
149	0x10	16
150	0xb9	-71
151	0x0a	10
152	0xe3	-29
153	0xdc	-36
154	0x5f	95
155	0xd2	-46
156	0x19	25
157	0x38	56
158	0x03	3
159	0x2a	42
160	0x24	36
161	0x08	8
162	0xe2	-30
163	0xef	-17
164	0x55	85
165	0x3f	63
166	0xf2	-14
167	0xde	-34
168	0x0a	10
169	0x18	24
170	0xf0	-16
171	0x2e	46
172	0xc4	-60
173	0x27	39
174	0x32	50
175	0xcb	-53
176	0xf0	-16
177	0x6d	109
178	0xcd	-51
179	0x03	3
180	0x10	16
181	0xf0	-16
182	0x54	84
183	0x17	23
184	0xb9	-71
185	0xe7	-25
186	0xe1	-31
187	0xbc	-68
188	0xfc	-4
189	0x1a	26
190	0xc2	-62
191	0x25	37
192	0x56	86
193	0x56	86
194	0x3e	62
195	0xb8	-72
196	0x7f	127
197	0xef	-17
198	0xc1	-63
199	0x1c	28
200	0x28	40
201	0x0a	10
202	0x3c	60
203	0xf0	-16
204	0xb5	-75
205	0x0b	11
206	0xf8	-8
207	0x05	5
208	0xfb	-5
209	0xc3	-61
210	0x0a	10
211	0x34	52
212	0xa6	-90
213	0x56	86
214	0xa1	-95
215	0x96	-106
216	0x15	21
217	0xf2	-14
218	0xd3	-45
219	0xfb	-5
220	0xbe	-66
221	0x08	8
222	0xd9	-39
223	0xb4	-76
224	0x52	82
225	0x12	18
226	0x84	-124
227	0xf3	-13
228	0x4d	77
229	0xda	-38
230	0x03	3
231	0xef	-17
232	0x91	-111
233	0xd0	-48
234	0x3c	60
235	0x10	16
236	0x85	-123
237	0xe4	-28
238	0x52	82
239	0x36	54
240	0xd1	-47
241	0x6d	109
242	0x28	40
243	0x07	7
244	0x18	24
245	0xde	-34
246	0x2b	43
247	0x21	33
248	0xd7	-41
249	0x66	102
250	0xe0	-32
251	0x42	66
252	0x07	7
253	0xa8	-88
254	0xd8	-40
255	0x2f	47

arith.constant22 f4 [128]
0	0xbbeac8ef	-0.0071650664
1	0xbdbe238e	-0.09284125
2	0x3c12e064	0.008964632
3	0x3c835e42	0.016036157
4	0xbcf690c7	-0.030098332
5	0xbcde8a66	-0.027165603
6	0xbb93dee3	-0.004512654
7	0xbd632207	-0.055452373
8	0x3cde5b9b	0.02714329
9	0xbbf0c267	-0.0073473933
10	0xbda33ed7	-0.0797097
11	0x3cd69ba2	0.026197258
12	0x3c8b641d	0.017015511
13	0xbd8f6391	-0.07001413
14	0xbd547643	-0.051870596
15	0xbbd04b82	-0.0063566575
16	0xbc406eb2	-0.011745142
17	0xbc667ed5	-0.014068325
18	0xbcacc868	-0.021091655
19	0x3bcdce8c	0.006280726
20	0x3b36c11f	0.0027886105
21	0x3cb24bdc	0.021764688
22	0xbdedd605	-0.116130866
23	0xbcfbda83	-0.030743843
24	0x3c9b5fa8	0.01896651
25	0xbd172d98	-0.036908716
26	0xbdf4d5a3	-0.119548105
27	0xbd930a21	-0.07179666
28	0xbd5d043e	-0.053959124
29	0xbde003eb	-0.10938247
30	0x3dd93c43	0.10607197
31	0x3a827853	0.0009954072
32	0x3f89b661	1.0758783
33	0x3f821012	1.0161154
34	0x3f907823	1.1286663
35	0x3f798763	0.9747221
36	0x3f904c94	1.127337
37	0x3f822a2a	1.0169117
38	0x3f85ec38	1.0462713
39	0x3f835793	1.02611
40	0x3f8b1769	1.0866519
41	0x3f85d8ef	1.0456828
42	0x3f82c501	1.0216371
43	0x3f8b9635	1.0905215
44	0x3f8334f4	1.0250535
45	0x3f7fe059	0.999517
46	0x3f8561fe	1.042053
47	0x3f84264f	1.0324191
48	0x3f8811b8	1.0630407
49	0x3f8751c4	1.0571828
50	0x3f85878d	1.0431992
51	0x3f8a5f25	1.0810286
52	0x3f89aa21	1.0755044
53	0x3f8f551b	1.1197847
54	0x3f878b02	1.0589297
55	0x3f832141	1.0244523
56	0x3f935555	1.1510416
57	0x3f900a89	1.1253215
58	0x3f7a9047	0.978764
59	0x3f82a5bf	1.0206832
60	0x3f8773bb	1.0582193
61	0x3f7b7a35	0.9823335
62	0x3fa6b9b2	1.302542
63	0x3f86c77f	1.0529631
64	0x3cf8abae	0.0303553
65	0xbc203df9	-0.0097804
66	0x3ae088e5	0.0017130641
67	0xbd2f2cef	-0.04276746
68	0x3bd4366e	0.006476215
69	0xbce70570	-0.028200835
70	0x3cbbed8b	0.022940418
71	0x3c9452c0	0.018105865
72	0x3c35f0bb	0.011104758
73	0x3caea17b	0.021317234
74	0x3d098a35	0.03357907
75	0xbd9a50ad	-0.07534919
76	0x3c55fec1	0.013061226
77	0xbbc20bee	-0.0059218323
78	0xbd554856	-0.052070938
79	0xbcc8e3ef	-0.02452275
80	0x3d08a182	0.03335715
81	0x3c8f67fc	0.017505638
82	0xba58a520	-0.00082643516
83	0x3b96f614	0.0046069715
84	0x3cd443c0	0.025911212
85	0xbca3fcff	-0.020018099
86	0xbd9a7e2b	-0.07543596
87	0x3c9c58dc	0.01908534
88	0xbca9bbf0	-0.020719498
89	0xbc2da8ef	-0.010599359
90	0xbc857d89	-0.016295211
91	0xbcbf101e	-0.023323115
92	0xbcdd82cf	-0.027039913
93	0x3d32b13e	0.043626063
94	0xbcf40a72	-0.029790137
95	0x3cac951e	0.021067198
96	0xbcc2cfdc	-0.023780756
97	0x3d1c100c	0.03810124
98	0x3d8ed832	0.0697483
99	0x3d163f66	0.036681555
100	0x3d28ec63	0.04124106
101	0x3aadb821	0.0013253727
102	0x3c8c3c32	0.017118547
103	0x3d17aefb	0.03703211
104	0x3b3e6d1d	0.0029056736
105	0x3c931a08	0.017956749
106	0x3c7e2d5d	0.015513745
107	0xbc864d53	-0.016394293
108	0xbc3cfd68	-0.011535026
109	0x3a83db2b	0.0010059824
110	0x3c2ec36e	0.010666711
111	0xba2f715e	-0.0006692613
112	0x3cbe8ad5	0.02325956
113	0x3cc3c716	0.023898643
114	0xbc849d70	-0.016188353
115	0x3d02b4a0	0.03191054
116	0x3c1310e0	0.008976191
117	0xbcb66bb1	-0.022268148
118	0x3c7d4c4a	0.015460083
119	0x3baea30c	0.0053294953
120	0xbce3a513	-0.027788674
121	0x3bac5088	0.0052586235
122	0x3d82f793	0.06394877
123	0x3c80de84	0.015731104
124	0xbda4e818	-0.08052081
125	0x3cfef4ca	0.031122584
126	0x3cccb72f	0.024989692
127	0x3cd17bd4	0.025571741

tfl.pseudo_qconst3 i1 [128, 64]
0	0xb1	-79
1	0x07	7
2	0xba	-70
3	0x15	21
4	0x38	56
5	0x78	120
6	0xd0	-48
7	0x40	64
8	0xb6	-74
9	0x7f	127
10	0x31	49
11	0x3e	62
12	0xf3	-13
13	0xf2	-14
14	0xbf	-65
15	0x09	9
16	0xad	-83
17	0x1e	30
18	0xd9	-39
19	0xf6	-10
20	0xa2	-94
21	0x2d	45
22	0x16	22
23	0xd2	-46
24	0xcf	-49
25	0xf8	-8
26	0xd7	-41
27	0x94	-108
28	0x58	88
29	0xf1	-15
30	0x55	85
31	0xc9	-55
32	0x58	88
33	0xee	-18
34	0xff	-1
35	0x43	67
36	0x5a	90
37	0xa2	-94
38	0x6e	110
39	0xd8	-40
40	0x51	81
41	0xc8	-56
42	0x34	52
43	0x51	81
44	0x46	70
45	0xac	-84
46	0xca	-54
47	0xa6	-90
48	0x01	1
49	0xcb	-53
50	0x27	39
51	0xf7	-9
52	0xef	-17
53	0xdd	-35
54	0x0a	10
55	0x09	9
56	0xbd	-67
57	0xc6	-58
58	0x1a	26
59	0x99	-103
60	0xb1	-79
61	0xd8	-40
62	0x9f	-97
63	0x0e	14
64	0x26	38
65	0x12	18
66	0xcc	-52
67	0x46	70
68	0x1b	27
69	0x21	33
70	0xe5	-27
71	0xf3	-13
72	0xef	-17
73	0x25	37
74	0x13	19
75	0x1e	30
76	0xfb	-5
77	0xd8	-40
78	0xfc	-4
79	0xf7	-9
80	0x0e	14
81	0xf8	-8
82	0x2b	43
83	0xf9	-7
84	0x36	54
85	0x7f	127
86	0xd1	-47
87	0xcf	-49
88	0x5e	94
89	0x22	34
90	0x3f	63
91	0xae	-82
92	0x53	83
93	0x34	52
94	0x55	85
95	0x24	36
96	0xc4	-60
97	0x09	9
98	0xc1	-63
99	0x56	86
100	0x0f	15
101	0xca	-54
102	0x05	5
103	0xf4	-12
104	0x13	19
105	0x20	32
106	0x35	53
107	0x31	49
108	0x16	22
109	0xf1	-15
110	0x25	37
111	0xb3	-77
112	0x09	9
113	0x33	51
114	0x01	1
115	0x34	52
116	0x02	2
117	0xf6	-10
118	0xee	-18
119	0xf4	-12
120	0xdb	-37
121	0x07	7
122	0xdd	-35
123	0xde	-34
124	0xd4	-44
125	0xa1	-95
126	0xda	-38
127	0xf3	-13
128	0xcc	-52
129	0x02	2
130	0xd0	-48
131	0x00	0
132	0xb3	-77
133	0x17	23
134	0x1d	29
135	0xbe	-66
136	0xff	-1
137	0x7f	127
138	0xe9	-23
139	0x1f	31
140	0xdc	-36
141	0xd7	-41
142	0xda	-38
143	0x77	119
144	0x4d	77
145	0x4d	77
146	0x65	101
147	0x95	-107
148	0xf9	-7
149	0x5e	94
150	0xc8	-56
151	0xd5	-43
152	0x40	64
153	0x0d	13
154	0x10	16
155	0x00	0
156	0x71	113
157	0x34	52
158	0x4b	75
159	0xa4	-92
160	0xd3	-45
161	0x21	33
162	0x0d	13
163	0x1d	29
164	0xd2	-46
165	0x1c	28
166	0x1a	26
167	0x0a	10
168	0xfe	-2
169	0xe9	-23
170	0x47	71
171	0xf3	-13
172	0x4b	75
173	0xe1	-31
174	0x00	0
175	0x23	35
176	0x1b	27
177	0xc7	-57
178	0xed	-19
179	0xcd	-51
180	0xe1	-31
181	0x1a	26
182	0x2d	45
183	0x2c	44
184	0x41	65
185	0xab	-85
186	0xed	-19
187	0x26	38
188	0xbd	-67
189	0x0c	12
190	0x32	50
191	0xe2	-30
192	0x37	55
193	0xf9	-7
194	0xdb	-37
195	0xf6	-10
196	0x03	3
197	0xa9	-87
198	0xc8	-56
199	0x3b	59
200	0xab	-85
201	0x2b	43
202	0x2f	47
203	0xa8	-88
204	0xd2	-46
205	0xc5	-59
206	0x46	70
207	0xf7	-9
208	0x01	1
209	0x1e	30
210	0x09	9
211	0x1f	31
212	0xc0	-64
213	0x2e	46
214	0x28	40
215	0x50	80
216	0xec	-20
217	0xf8	-8
218	0x0f	15
219	0xd4	-44
220	0xf2	-14
221	0xef	-17
222	0xc4	-60
223	0xfc	-4
224	0xe8	-24
225	0xe2	-30
226	0xf7	-9
227	0xc6	-58
228	0xbf	-65
229	0xc5	-59
230	0x1d	29
231	0xf8	-8
232	0x32	50
233	0x66	102
234	0x22	34
235	0x7f	127
236	0x07	7
237	0x04	4
238	0x64	100
239	0xf4	-12
240	0x26	38
241	0xb9	-71
242	0x3d	61
243	0xde	-34
244	0xbb	-69
245	0x9e	-98
246	0x08	8
247	0xfa	-6
248	0x1d	29
249	0xf0	-16
250	0xe9	-23
251	0x3e	62
252	0xae	-82
253	0xba	-70
254	0x3c	60
255	0xd0	-48

tfl.pseudo_qconst4 i1 [128, 32]
0	0xe6	-26
1	0x45	69
2	0xee	-18
3	0xd9	-39
4	0x3e	62
5	0x09	9
6	0xfb	-5
7	0x00	0
8	0x0a	10
9	0x49	73
10	0xec	-20
11	0x0f	15
12	0x30	48
13	0x0c	12
14	0xfc	-4
15	0xfb	-5
16	0xcb	-53
17	0xfa	-6
18	0xe2	-30
19	0x08	8
20	0xe9	-23
21	0xee	-18
22	0xdd	-35
23	0xf1	-15
24	0x1d	29
25	0x7f	127
26	0xc9	-55
27	0x3e	62
28	0x1b	27
29	0x13	19
30	0xf0	-16
31	0xf6	-10
32	0xe4	-28
33	0x2c	44
34	0x0e	14
35	0xbe	-66
36	0xf8	-8
37	0x4c	76
38	0x20	32
39	0xd7	-41
40	0xb1	-79
41	0xe8	-24
42	0x1c	28
43	0x4d	77
44	0x44	68
45	0xee	-18
46	0x72	114
47	0xd4	-44
48	0x56	86
49	0x81	-127
50	0xb7	-73
51	0xec	-20
52	0x0d	13
53	0x26	38
54	0x3d	61
55	0x98	-104
56	0xf1	-15
57	0xda	-38
58	0x9b	-101
59	0x1f	31
60	0xae	-82
61	0xd7	-41
62	0x7f	127
63	0x4f	79
64	0xc7	-57
65	0x58	88
66	0x48	72
67	0x15	21
68	0xd5	-43
69	0x7f	127
70	0xb8	-72
71	0xfb	-5
72	0x03	3
73	0xe2	-30
74	0x51	81
75	0x05	5
76	0x5c	92
77	0x3d	61
78	0xf7	-9
79	0x52	82
80	0x4e	78
81	0xee	-18
82	0x1a	26
83	0xdf	-33
84	0x29	41
85	0x26	38
86	0x07	7
87	0x0d	13
88	0xc5	-59
89	0x61	97
90	0x0d	13
91	0xf8	-8
92	0xc2	-62
93	0xe5	-27
94	0xe5	-27
95	0x08	8
96	0xff	-1
97	0xb5	-75
98	0x29	41
99	0x1e	30
100	0x0e	14
101	0xb5	-75
102	0x22	34
103	0xe4	-28
104	0x1a	26
105	0x00	0
106	0x30	48
107	0xe9	-23
108	0xeb	-21
109	0x81	-127
110	0x08	8
111	0x43	67
112	0x2d	45
113	0x3f	63
114	0x44	68
115	0xa7	-89
116	0xee	-18
117	0xec	-20
118	0xd7	-41
119	0x1b	27
120	0x03	3
121	0x06	6
122	0xc3	-61
123	0x06	6
124	0x1a	26
125	0xfb	-5
126	0xa2	-94
127	0x37	55
128	0x00	0
129	0xf5	-11
130	0x92	-110
131	0x02	2
132	0xf4	-12
133	0xed	-19
134	0x81	-127
135	0x2f	47
136	0x19	25
137	0x10	16
138	0x07	7
139	0xe9	-23
140	0xd8	-40
141	0x40	64
142	0xec	-20
143	0xd2	-46
144	0x16	22
145	0x2c	44
146	0xfc	-4
147	0xe9	-23
148	0xc3	-61
149	0xcc	-52
150	0xd7	-41
151	0x0b	11
152	0x4d	77
153	0x39	57
154	0x2d	45
155	0xf7	-9
156	0x2b	43
157	0x12	18
158	0xed	-19
159	0x16	22
160	0x81	-127
161	0x13	19
162	0xf1	-15
163	0xdc	-36
164	0x38	56
165	0x26	38
166	0xe9	-23
167	0x30	48
168	0xdf	-33
169	0xde	-34
170	0x14	20
171	0xdb	-37
172	0xb0	-80
173	0x31	49
174	0x9e	-98
175	0x6b	107
176	0x0c	12
177	0xfb	-5
178	0x40	64
179	0x41	65
180	0x2c	44
181	0xc2	-62
182	0xe1	-31
183	0xea	-22
184	0x6f	111
185	0x2b	43
186	0x0d	13
187	0xbc	-68
188	0xba	-70
189	0x20	32
190	0x5d	93
191	0xfd	-3
192	0x27	39
193	0x1e	30
194	0x7f	127
195	0xf9	-7
196	0xe5	-27
197	0xe8	-24
198	0xfa	-6
199	0xfa	-6
200	0xfa	-6
201	0xf4	-12
202	0x47	71
203	0x3d	61
204	0xdb	-37
205	0x3b	59
206	0xbe	-66
207	0x24	36
208	0x3f	63
209	0xa6	-90
210	0xc0	-64
211	0xea	-22
212	0x2c	44
213	0x8c	-116
214	0x19	25
215	0xf6	-10
216	0x37	55
217	0x30	48
218	0xd2	-46
219	0x3d	61
220	0xd3	-45
221	0x5b	91
222	0xfe	-2
223	0x4a	74
224	0xf9	-7
225	0x3b	59
226	0xab	-85
227	0x17	23
228	0xf8	-8
229	0xee	-18
230	0x19	25
231	0x37	55
232	0x35	53
233	0xe7	-25
234	0x3e	62
235	0xe9	-23
236	0x65	101
237	0x58	88
238	0x9f	-97
239	0x4d	77
240	0xc9	-55
241	0x1e	30
242	0xf8	-8
243	0xab	-85
244	0xb7	-73
245	0x7f	127
246	0xf3	-13
247	0x5c	92
248	0xf5	-11
249	0x14	20
250	0xfd	-3
251	0xff	-1
252	0xfe	-2
253	0x12	18
254	0x09	9
255	0xee	-18
